saved_models/DQN_episode_531.pth (torch, 4696 bytes, 6 tensors)

layers.0.weight f4 [16, 8]
00000000: f1d1 bebe b8eb b83f 7318 03c0 2ad1 0c3e
00000010: 5c5c d3bf 478b 5d3e 3a5e 893d 5958 9a3e
00000020: 6d01 3f3f b712 1d3e a68b 3a3f a254 0340
00000030: 3409 06bf 8119 8dbc 78e5 c83e 1312 1e3e
00000040: 1a11 fc3f 1f72 2f40 140d ecbe 0017 c93f
00000050: d7d5 3d40 b528 c83f 558b 303e 22c4 003d
00000060: 8d2a 913f 1bcc 823f c8c1 3d3f 8256 b13e
00000070: ae4d bdbf 1049 20be d299 3abe f149 afbd
00000080: 0439 aabe 8c5b 1abe 8b37 03bf 1687 9c3f
00000090: 929e 773f 2641 a93f a380 583f 9756 42bc
000000a0: 9625 51be ee2e eebe 7d9d a43c a039 c2bf
000000b0: cd44 6ebf 3040 6ebf 4fb8 223f c61b d33e
000000c0: f12f 0a3d 5c2c f03e 9fbb fb3e 9632 523f
000000d0: 7fba 21c0 3d33 a43e 4adc f2be 5aa9 f0bd
000000e0: f101 42bf 3e52 8bbe 81d5 13be d7a7 bf3e
000000f0: 9095 8cbd 177f d93f c1df a43e 24d8 f73d
00000100: 6a6d 263f 0a3b 49be 9288 b73e a294 c93e
00000110: ae2b 253f ce9b af3f d550 79bf 991e bfbe
00000120: da57 fc3e 4fdb 6c3e b68d 133f 92c9 cbbe
00000130: a3fc 57bf b101 c7bf 18b8 12bf c05b 3cbf
00000140: e6bb fe3f c308 0d40 9222 8cbf b8fa 24bf
00000150: 2840 08bf 3d79 083f 780b 99be 3c73 813e
00000160: 064f b13d cb75 f4bc 33b7 2b3f 9131 16bf
00000170: d672 debb 6235 0c3f f8a3 923e f919 7cbd
00000180: 193d 1740 e09c f03e 8d80 54bd a37a a2bf
00000190: 375c 8f3f 865f 43bf a8e0 2b3f 540c c23e
000001a0: c531 1d3f 19ca 803e 6a58 343e f82c 98bf
000001b0: 31a5 19c0 9ef1 1bbf c7ee e3be 1077 a9be
000001c0: dcd2 5a3f 8d24 773f 0eb9 8fbe b741 85bf
000001d0: 1bd2 9bbe f8d9 503c 4879 d2bc 3bc2 87bd
000001e0: 42fb 0a3f 7aca 58bf 6e19 64bf 5426 3a3e
000001f0: b02c f53f fbcd 74bf a31b 143e 9a12 743e
-0.37269548 1.4446936 -2.0483673 0.13751665 -1.6512561 0.21635161 0.067074254 0.3014553
0.7461155 0.1533917 0.72869337 2.0520406 -0.5235779 -0.017224075 0.3923757 0.15436582
1.9692719 2.7413404 -0.46103728 1.5710144 2.9661767 1.5637423 0.17240651 0.031437047
1.134111 1.0218538 0.7412381 0.34636313 -1.4789331 -0.15652871 -0.1822274 -0.08559025
-0.33246624 -0.15073985 -0.51256627 1.2228725 0.96726334 1.3223007 0.84571284 -0.011861465
-0.20424494 -0.4652018 0.020094628 -1.5173836 -0.9307373 -0.9306669 0.6356248 0.41232127
0.033737127 0.46908844 0.4916658 0.8210844 -2.5270078 0.32070342 -0.47433692 -0.11751051
-0.7578421 -0.27211183 -0.14436914 0.3743274 -0.06864464 1.699191 0.3220196 0.121017724
0.650107 -0.19651428 0.35846382 0.3937121 0.64519775 1.3719423 -0.97388965 -0.37328032
0.49285775 0.23130535 0.5763811 -0.39802223 -0.8436987 -1.5547391 -0.57312155 -0.735775
1.9901092 2.2036598 -1.094805 -0.64445066 -0.53222895 0.53309995 -0.29891562 0.2528323
0.08657651 -0.029841324 0.67076415 -0.5866938 -0.006788592 0.54768956 0.28640723 -0.061548207
2.363104 0.46994686 -0.051880408 -1.2693676 1.1200017 -0.7631763 0.67139673 0.3790003
0.6140407 0.25154188 0.17611852 -1.1888723 -2.4007075 -0.60915554 -0.4451811 -0.3309865
0.85477996 0.9654015 -0.28070873 -1.041068 -0.30433735 0.01274728 -0.025692597 -0.066288434
0.5428964 -0.84683955 -0.891013 0.18178684 1.9154263 -0.956268 0.14463668 0.23835221

layers.0.bias f4 [16]
00000000: 5e1a e33e 237f d8be df33 db3e 5d76 2f3e
00000010: 835a 83be a016 13bf 45ed 163f b46d 693f
00000020: 5cf7 143f ba26 adbc 13bc 6c3f 065f 983f
00000030: 1267 1740 7e86 233f cc49 d33f d621 793f
0.44356054 -0.42284498 0.42813012 0.17134996 -0.25654992 -0.574564 0.58955795 0.9118302
0.5818994 -0.02113663 0.9247448 1.1903999 2.365666 0.63877094 1.6506896 0.97317255

layers.2.weight f4 [16, 16]
00000000: 293f 6e3e 087e 6e3e 82c7 f83f 79d7 e73b
00000010: ec9c 0fbf 092a 5dc0 85b6 5cbf 4075 50c0
00000020: 54d0 28c0 4255 2c3e 25ef a83f a6a8 a3bd
00000030: 728b bd3e 70af 96bf 0974 023f f285 90c0
00000040: d92f 1fbf e50f 05c0 57f9 2fbf d835 46bf
00000050: 8a07 a9bf 2a0c e2bf dc39 9ebe 874a 40be
00000060: 6134 06bf bbc3 4ebf 1236 843f 51b7 d13f
00000070: e21b bc3f 5ad3 23be b666 953f 0e86 c3bd
00000080: dbb4 6e3f 4c8a 8f3f 2774 743f be9e 693f
00000090: cf92 9d3f 14e9 a43f 4ff3 203f 1d9a 183f
000000a0: 6cc1 843f 8d50 763f fe66 cf3c c027 8abf
000000b0: ef4e d3bd e491 553f 9811 38be d41b edbe
000000c0: ed55 2f40 fb3f 2abf 5a70 09c0 ad51 ba3e
000000d0: 19f3 f2bf c2f7 5fc0 bbca f83f 18fc c53f
000000e0: bcd3 b6bf 8617 dcbf cef0 1e3f 8f6c 203f
000000f0: 89a8 83bf 460d 6e3f 9428 f83e 60f3 24c0
00000100: 54b9 233f 6813 c53f f8b1 2f3f d447 e03f
00000110: db9c 883f f702 b03f dd77 a13e ffb5 af3e
00000120: 08e4 7d3f 46ea 823f 9b95 6abc 9690 69bf
00000130: a2bc b1ba 102c 8f3f d1a4 01be c27d 29bf
00000140: 42fd 573f a7db aa3f 9ea6 583f 107e 893f
00000150: c9dd 9f3f 94ae b03f 1f18 323f 27c0 213f
00000160: e269 753f 2682 8b3f 4bc6 c13d e1ff 90bf
00000170: 9c7f 1ebc d1ab 453f 61b5 79be 5606 e1be
00000180: 9e78 613f 4a94 df3f f033 193f 2049 933f
00000190: 7f31 913f ff16 c73f 3001 a53f 6993 f73e
000001a0: bb01 ef3e a0d2 8a3f 5d0f 343d 56ae 6ebf
000001b0: 8b20 b13d f247 013f 8bf0 7dbe d238 c9be
000001c0: 90b4 0ebf 7f8c 34c0 2536 a7be d8f0 a7bf
000001d0: ae82 dfbf 6f83 01c0 a9a0 9abe 2c3c 7dbe
000001e0: a465 e8be 9419 1bbf 6a71 543f 6231 c23f
000001f0: df51 b93f 0ff0 703e 517f 943f ee4f acbe
00000200: 5bbd 4f3f 9734 943e 8f45 443f c536 b73e
00000210: aad0 263f 4360 3e3f cdc6 5dbf 9e81 523b
00000220: 63ec 8c3f a50f a43e ab51 43bd 73ab 0dbf
00000230: efd3 0cbe a29f ab3f 84c1 0abd d137 a3be
00000240: e8dc 303f d0f5 b93f 9e1f 453f aa4f ac3f
00000250: bb5b a13f 8eed af3f 9543 0a3f 3ad7 ea3e
00000260: 1aa6 883f 7745 8b3f f5f3 883d 25c9 83bf
00000270: 83e0 4cbd 19b8 673f 60af 73be 5a2e eebe
00000280: e0d0 0e3f e86c c23e 0f55 c13e b341 f9be
00000290: ab98 d73e 082a 80bf b81c fa3f a110 703f
000002a0: 733b cabe 5982 063f 11aa 113f b3c6 243e
000002b0: 3e96 153f 9332 8dbf bc6e 453e 4a1b 913e
000002c0: 6757 263f c381 ef3f 4417 033f 5e0d cb3f
000002d0: 61ff 8c3f 9f8e d73f 3382 863f 4c43 c53e
000002e0: 3ca0 2b3f da09 943f 5b0c c3bb a5a2 6cbf
000002f0: 0c88 fb3d a1a7 4d3f 7b0a 67be ddb3 dfbe
00000300: d6c5 703f ac5b d83f b152 453f 3611 a43f
00000310: 05f9 933f 74c2 c83f f5ca 8c3f 88bd 163f
00000320: 3f15 2d3f ccb5 9f3f ad31 d13d 1c0f 82bf
00000330: aa97 53bd 5204 3a3f 4e9b 7fbe cdf0 bfbe
00000340: 14d6 b8be 6b57 0cc0 e95a afbe 40d0 42bf
00000350: e68f c1bf 5500 d4bf bd98 06bf c97f 61be
00000360: 933b c0be 22a6 78bf a7bc 3d3f 13cf b43f
00000370: 0a29 a03f 8c03 da3d 91a8 903f d3c1 6ebe
00000380: 475b 2d3f 81f0 b53f bce6 483f dabd a93f
00000390: 2459 9c3f 98f4 aa3f 8933 f43e 7624 ed3e
000003a0: 0c8b 833f 92be 963f a324 6b3d dee2 87bf
000003b0: 8679 4c3c e6ad 5d3f 002a 66be 41cf cbbe
000003c0: 7f1e 373f ea82 953f 6212 5b3d 3ba6 403f
000003d0: 8925 26bd c209 7a3f 04a3 403f 1bb9 633d
000003e0: 9aaa 4dbe 913e 3b3f 3aec b1bf 79d0 98bf
000003f0: 02a6 6cbf 8421 1f3f 3262 90bd 4816 713f
0.23266281 0.23290265 1.9435885 0.007075247 -0.5609882 -3.4556906 -0.86216 -3.2571564
-2.6377153 0.16829398 1.3197981 -0.079911515 0.3702045 -1.1772289 0.50958306 -4.5163507
-0.62182385 -2.0790951 -0.6873984 -0.7742591 -1.3205426 -1.7659962 -0.30903518 -0.1877843
-0.52423674 -0.8076741 1.0329001 1.6384069 1.4696009 -0.15998593 1.167197 -0.09547053
0.93244714 1.121408 0.95489734 0.91257846 1.2310427 1.288363 0.6287126 0.5961016
1.0371528 0.9621666 0.025317665 -1.0793381 -0.1031779 0.83425736 -0.17975461 -0.46310294
2.7396195 -0.66503876 -2.1474824 0.3639044 -1.8980438 -3.499497 1.9436868 1.5467558
-1.4283366 -1.7194679 0.6208619 0.6266565 -1.0285808 0.92989004 0.4846846 -2.5773544
0.63954663 1.5396547 0.68630934 1.752192 1.0672868 1.3750905 0.3153676 0.3431854
0.99176073 1.0227745 -0.014317895 -0.91236246 -0.0013560245 1.1185322 -0.12660529 -0.66207516
0.84370816 1.3348283 0.8462924 1.0741596 1.2489558 1.3803277 0.69568056 0.63183826
0.9586469 1.0899093 0.094616495 -1.1328088 -0.009673979 0.77215296 -0.24385597 -0.43950146
0.8807467 1.7467129 0.59844875 1.1506691 1.134323 1.5553893 1.2890987 0.48354653
0.46681008 1.0845528 0.043959964 -0.93234766 0.08648785 0.50500405 -0.24798791 -0.39301163
-0.55744267 -2.8210752 -0.32658496 -1.3120375 -1.7461755 -2.023647 -0.302007 -0.24729985
-0.45390046 -0.60585904 0.82985556 1.517132 1.447811 0.23529075 1.1601354 -0.33654732
0.8114831 0.28946373 0.7666864 0.35783973 0.65162146 0.74365634 -0.8663147 0.0032120715
1.100964 0.32043186 -0.047685307 -0.55339736 -0.13752721 1.3408091 -0.033875957 -0.31878522
0.69087076 1.4528141 0.7700137 1.3461812 1.2606119 1.3744371 0.5400937 0.4586733
1.067569 1.0880574 0.06687156 -1.029576 -0.0500188 0.90515286 -0.23797369 -0.46519738
0.5578747 0.37973714 0.37760207 -0.48682937 0.42108664 -1.0012827 1.9540014 0.93775374
-0.3949848 0.52542645 0.56900126 0.16091423 0.58432376 -1.1031059 0.19280523 0.28341132
0.64977115 1.8711475 0.51207376 1.5863454 1.1015435 1.68404 1.0508484 0.38527906
0.67041373 1.1565506 -0.0059524006 -0.92435676 0.12281808 0.80333906 -0.22562592 -0.43691912
0.94051874 1.6902976 0.770793 1.2817752 1.156037 1.5684342 1.0999438 0.5888295
0.67610544 1.2477355 0.10214553 -1.0160861 -0.05165831 0.7266284 -0.24961588 -0.37488404
-0.3610083 -2.1928356 -0.34249046 -0.76099014 -1.5122039 -1.6562601 -0.5257681 -0.22021402
-0.37545452 -0.971285 0.74115986 1.4125694 1.2512524 0.10645208 1.1301442 -0.23316126
0.67717403 1.4214021 0.7847707 1.3261063 1.2214704 1.3355894 0.47695568 0.4631688
1.0276809 1.1776907 0.057407986 -1.0616109 0.012480145 0.8659347 -0.22476959 -0.3980656
0.7153091 1.1680577 0.053484328 0.7525365 -0.04056314 0.9767114 0.7524874 0.055596452
-0.2008461 0.73142344 -1.3900216 -1.1938621 -0.9244081 0.62160516 -0.07049979 0.94174623

layers.2.bias f4 [16]
00000000: 7167 66bf 61cc dd3f 3307 b9be 4692 463f
00000010: 2982 eebe 944d d1be fbef 77be ce2e 0040
00000020: 04b7 4abe ad7f b0be 0a7a 803f fd76 d7be
00000030: fe57 99be 621e cf3f ffeb f2be de37 a9bd
-0.9000159 1.7327996 -0.36138305 0.77566946 -0.4658368 -0.408795 -0.24212639 2.0028567
-0.19796377 -0.3447241 1.0037243 -0.42082968 -0.29949945 1.6181147 -0.47445676 -0.08262609

layers.4.weight f4 [4, 16]
00000000: 5a52 9c40 2f0d b63f 735b 38bf 7e03 8c40
00000010: 31b9 72bf 4d12 33bf 26b1 d7be 8094 0440
00000020: a18b c9bf 57f0 5abf 995c 0b3f ebd9 1bbf
00000030: d462 08bf 2c64 ac3f 0dbf 4fbf 5f5a 15bf
00000040: e102 9640 400d ec3f 66d6 7cbf 483f 8d40
00000050: e75e 08bf acfd 52bf 1c26 01bf fa2f fb3f
00000060: f33e d3bf bbe4 30bf be10 0e3d 383f aabe
00000070: 32b6 22bf 3fb1 ab3f 9274 20bf 4e5b 66bf
00000080: 9796 9240 4a3f ce3f c8ce 26bf bae7 9440
00000090: 109e 19bf 0c69 31bf ce9d 6fbf dfdb 0f40
000000a0: e4a9 4cbd 022f 2abf b71b 5cbf d6ae 58bf
000000b0: 40c0 5abf 0a92 e53f 421d 1ebf 021c 9f3f
000000c0: 9a37 9440 6abf a73f a474 22bf a806 8a40
000000d0: 28f3 84bf 5e24 2fbf 6ae3 26bf b3cf 0c40
000000e0: 94f1 02bf 2ec1 51bf f826 2b3f 4f5a 64bf
000000f0: 40a7 31bf 0ae2 9e3f 1236 47bf e944 663f
4.8850527 1.4222773 -0.7201454 4.3754263 -0.9481383 -0.699498 -0.4212734 2.0715637
-1.5745736 -0.8552298 0.5443817 -0.6087939 -0.532758 1.346807 -0.81150895 -0.5834102
4.6878514 1.8441544 -0.98764646 4.413975 -0.5326981 -0.8241832 -0.50448775 1.9624016
-1.6503586 -0.69099015 0.034683935 -0.33251357 -0.6355926 1.3413466 -0.6267787 -0.8998307
4.5808825 1.6113064 -0.65159273 4.653287 -0.6000681 -0.69300914 -0.93600166 2.2477949
-0.049966708 -0.6647798 -0.8597979 -0.8464178 -0.854496 1.7935193 -0.61763394 1.2430422
4.6317873 1.310529 -0.6345923 4.3133125 -1.0386705 -0.68414867 -0.65190756 2.200177
-0.5114987 -0.81935394 0.66856337 -0.892003 -0.6939583 1.2412732 -0.7781688 0.899489

layers.4.bias f4 [4]
00000000: 12ed e33e ad7a 26be 6a8d 9e3c 0a66 0f3f
0.44516808 -0.16257735 0.01935454 0.56015074
