saved_models/DQN_episode_369.pth (torch, 41432 bytes, 6 tensors)

layers.0.weight f4 [128, 8]
-0.187483 0.03436889 -0.23176143 -0.39851582 -0.043116167 0.10039945 0.12819676 0.14243774
-0.075305976 0.14261103 0.13394415 0.32754967 -0.14661787 -0.36761236 0.15045801 0.64834386
0.4623004 0.28478536 -0.30136308 -0.40911368 0.27191764 0.09897642 -0.30532518 0.045299057
0.3897221 0.07368288 -0.054405928 -0.4615623 -0.61592555 -0.06372088 -0.10884311 0.20780008
0.023130022 -0.14109904 -0.28074372 -0.37423393 0.038077865 0.82626766 0.36997083 -0.4128417
0.39178625 -0.66006464 -0.40500745 -0.48290053 -0.62664294 0.020652013 -0.5263796 -0.100355186
0.3740101 0.1634921 0.15482067 0.44438133 0.00030648574 -0.1915174 0.28283334 0.011482199
0.13572818 -0.22872521 -0.1974075 -0.3222646 0.36419004 0.07869428 -0.72188026 -0.33063486
0.067578204 -0.089772664 -0.08683677 0.20568861 0.9667497 0.2033644 0.2725534 0.47050494
-0.07238047 0.04426894 0.032212462 0.038794734 0.096802324 -0.73825014 0.04731696 0.32878906
-0.55608785 0.28932047 0.31811816 -0.55147004 -0.26576754 0.03451339 -0.051839784 -0.4851419
0.688557 0.24202044 0.25137615 -0.18184046 0.54581434 0.26617488 -0.7964265 -0.032873016
0.5765185 0.51436025 -0.2100898 -0.0006989416 0.90145916 0.5829805 0.012012521 -0.04302602
-0.239752 0.11036762 -0.17393632 -0.7219185 0.07277798 -0.026341522 -0.23152955 0.0027569884
-0.84298694 0.14577557 0.48266432 -0.12852086 -0.35708547 -0.2048112 -0.008553271 0.53513896
-0.027641637 0.4792022 0.18958974 0.041700467 -0.6785936 -0.27026236 0.01554887 0.89016825
-0.3732428 -1.1368561 -0.5668666 -0.35708672 -0.6327146 0.13700958 0.20627284 -0.01831865
-0.09730413 0.20115152 -0.56089336 -0.53466696 0.6130519 0.73542494 0.38740483 -0.34458444
-0.22398114 -0.09354464 0.25199345 -0.090734676 -0.4096597 -0.2976906 -0.8371596 0.6016553
0.66122293 0.0021841137 0.27121803 -1.0574057 0.6143883 -0.473879 -0.10853701 0.090075284
-0.07911723 -0.10612651 -0.3756058 -0.5437421 -0.17592831 0.04302225 -0.07369266 -0.04436634
-0.013300994 0.0290543 0.9210833 0.09913053 0.21150842 -0.11070621 -0.18497735 0.8167859
0.28525093 0.010796921 0.03744006 -0.04758649 0.0403269 -0.078525856 -0.15104412 -0.2064419
0.28100926 0.009746071 -0.011663529 -0.32357603 -0.18700288 0.27913734 0.27567998 -0.008007964
-0.53900886 0.75008297 -0.7781731 0.07740145 0.21783528 0.2811594 -0.32675427 -0.15507494
-0.06547143 0.5645251 0.29700744 0.13422884 -0.49946132 0.2522093 0.021627884 0.39441007
0.69056857 -0.34945127 -0.027804237 -0.14275117 -0.42395478 -0.11579216 0.32613614 0.05354194
0.5020173 -0.7248392 0.53468966 -0.3735585 -0.09084591 0.19500707 -0.12719677 -0.82047576
0.13203587 -0.009813903 -0.14587012 -0.1436579 0.26332137 -0.6864424 -0.18178007 0.07585899
0.11007568 0.4588544 0.20986101 -0.08404361 -0.42265958 -0.6248318 -0.23993194 0.23645507
0.4828126 0.031164702 -0.5540594 -0.7245996 0.29655784 -0.4625816 0.13304952 -0.24054389
0.47684458 -0.19642504 -0.36277777 0.5475205 1.1439286 -0.028184468 -0.004113361 -0.018557133
00000000: 8bfb 3fbe 65c6 0c3d de52 6dbe 440a ccbe
00000010: 949a 30bd 3a9e cd3d 0346 033e 33db 113e
00000020: 053a 9abd a008 123e a828 093e 97b4 a73e
00000030: ff22 16be b037 bcbe aa11 1a3e ddf9 253f
00000040: a3b2 ec3e 63cf 913e 434c 9abe 5977 d1be
00000050: ca38 8b3e 26b4 ca3d 9553 9cbe 818b 393d
00000060: a889 c73e 0de7 963d c0d8 5ebd e551 ecbe
00000070: 4cad 1dbf 1880 82bd 23e9 debd 8bc9 543e
00000080: 2c7b bd3c 447c 10be a4bd 8fbe 979b bfbe
00000090: 89f7 1b3d 4786 533f d16c bd3e fd5f d3be
000000a0: 3598 c83e fff9 28bf 235d cfbe bd3e f7be
000000b0: ac6b 20bf 692e a93c d0c0 06bf 0587 cdbd
000000c0: 407e bf3e 796a 273e 4f89 1e3e f385 e33e
000000d0: d2af a039 231d 44be 88cf 903e d51f 3c3c
000000e0: 54fc 0a3e f136 6abe 3125 4abe deff a4be
000000f0: 1e77 ba3e 772a a13d 25cd 38bf f948 a9be
00000100: 7166 8a3d bbda b7bd 7ad7 b1bd 09a0 523e
00000110: e97c 773f c23e 503e 1f8c 8b3e 06e6 f03e
00000120: 363c 94bd 5953 353d 37f1 033d 3ae7 1e3d
00000130: 4c40 c63d f6fd 3cbf 6ecf 413d 0a57 a83e
00000140: c65b 0ebf d021 943e 62e0 a23e 242d 0dbf
00000150: af12 88be ea5d 0d3d f455 54bd 8564 f8be
00000160: 4645 303f 35d4 773e 60b4 803e 6334 3abe
00000170: 7dba 0b3f 1348 883e 9be2 4bbf dba5 06bd
00000180: b796 133f 1dad 033f c821 57be 2d39 37ba
00000190: 07c6 663f 363e 153f 2ad0 443c 0d3c 30bd
000001a0: 8c81 75be 6b08 e23d 5d1c 32be a7cf 38bf
000001b0: 9f0c 953d 2dca d7bc 1516 6dbe 97ae 343b
000001c0: fecd 57bf 3146 153e c71f f73e f99a 03be
000001d0: e8d3 b6be 07ba 51be 0523 0cbc defe 083f
000001e0: b770 e2bc fe59 f53e d023 423e 1cce 2a3d
000001f0: 4fb8 2dbf d45f 8abe b0c0 7e3c 11e2 633f
00000200: ae19 bfbe 8084 91bf 2b1e 11bf 12d4 b6be
00000210: 96f9 21bf 3d4c 0c3e 3039 533e fe10 96bc
00000220: 6347 c7bd aafa 4d3e b596 0fbf efdf 08bf
00000230: f8f0 1c3f cf44 3c3f ed59 c63e 5f6d b0be
00000240: 505b 65be 5594 bfbd 4905 813e 1ad3 b9bd
00000250: ebbe d1be e76a 98be 1750 56bf 1506 1a3f
00000260: e845 293f 5923 0f3b 17dd 8a3e 1259 87bf
00000270: 8d48 1d3f 45a0 f2be a748 debd 6479 b83d
00000280: 3708 a2bd db58 d9bd 674f c0be af32 0bbf
00000290: 8d26 34be 1938 303d 2dec 96bd 7bb9 35bd
000002a0: 6aec 59bc 4903 ee3c 1dcc 6b3f f304 cb3d
000002b0: aa95 583e f0b9 e2bd b46a 3dbe e118 513f
000002c0: 690c 923e 92e5 303c c05a 193d 0dea 42bd
000002d0: d22d 253d 2ad2 a0bd 4fab 1abe 8165 53be
000002e0: 72e0 8f3e fcad 1f3c 6318 3fbc c2ab a5be
000002f0: af7d 3fbe 17eb 8e3e ed25 8d3e d633 03bc
00000300: 7cfc 09bf 7005 403f 5a36 47bf a784 9e3d
00000310: 3610 5f3e 20f4 8f3e 564c a7be f7cb 1ebe
00000320: e315 86bd b884 103f 5c11 983e 4973 093e
00000330: 65b9 ffbe 9421 813e f62c b13c 1ef0 c93e
00000340: 1ac9 303f 47eb b2be b6c5 e3bc 5d2d 12be
00000350: 9a10 d9be 7124 edbd 51fb a63e cb4e 5b3d
00000360: 3584 003f 108f 39bf 6ce1 083f 0f43 bfbe
00000370: 6c0d babd efaf 473e df3f 02be b30a 52bf
00000380: 6934 073e 7eca 20bc fa5e 15be 0e1b 13be
00000390: 0fd2 863e b0ba 2fbf 8e24 3abe f55b 9b3d
000003a0: 5c6f e13d f7ee ea3e cee5 563e 0e1f acbd
000003b0: d666 d8be faf4 1fbf b8b0 75be 4721 723e
000003c0: 3733 f73e 1e4d ff3c d6d6 0dbf 5c7f 39bf
000003d0: 6ed6 973e 7fd7 ecbe 223e 083e 2351 76be
000003e0: f924 f43e a523 49be 02be b9be 4e2a 0c3f
000003f0: 416c 923f 1de3 e6bc 5fc9 86bb 2105 98bc

layers.0.bias f4 [128]
0.18635184 -0.10317022 0.080526836 0.30702105 -0.08430569 0.7550327 0.64352715 0.15594348
0.15046698 -0.0048662596 0.14650069 0.5329324 -0.039546296 0.15466994 -0.53356963 0.3254774
-0.09340965 -0.035824347 -0.07356317 -0.050682787 0.2678556 -0.0054024556 0.8243069 0.2335846
0.090281874 0.47323695 0.075421415 0.021069713 0.03932673 0.5072508 0.25485867 -0.027053466
0.4206194 0.38412842 1.0651572 0.09779774 0.1876468 0.5062522 0.3671739 0.68034333
0.10697533 0.12635481 0.35073596 -0.37804624 0.14391838 0.68768466 0.33363625 0.32127804
0.44992176 0.19346923 0.37796217 -0.12830159 -0.3138156 -0.37421814 0.6752496 0.28736275
0.16459103 -0.83701444 0.254218 0.38288462 0.37337524 0.55912864 0.31325734 0.1624628
0.092432864 0.02691572 -0.27679494 0.5602903 0.30186805 0.38173494 0.13607927 -0.30482298
0.15448527 -0.022672258 -0.5464999 -0.715471 0.28353977 0.19145396 0.34994456 0.25997135
0.0399953 0.39790258 0.28417057 0.15434782 0.6446747 0.52316904 -0.0074678445 -0.38331673
0.48576733 -0.034320295 -0.3481367 -0.17575096 0.49413192 -0.42611554 -0.060264252 0.011096855
-0.17373554 -0.36374715 -0.1043995 0.17516412 0.0014172385 -0.22949849 0.08220033 0.024925763
0.18971011 -0.26305255 -0.768211 0.16521661 0.38468605 0.49452803 0.46062225 0.032693416
-0.103861496 -0.1345936 0.31645837 0.5781927 0.652137 0.5719109 0.25223252 -0.1830385
0.24473417 -0.41720387 0.03268594 -0.052073773 0.22601755 -0.433857 0.6399365 0.07727676
00000000: 04d3 3e3e e94a d3bd 41eb a43d dd31 9d3e
00000010: 76a8 acbd d349 413f 32be 243f a6af 1f3e
00000020: 0414 1a3e 2575 9fbb 4704 163e 426e 083f
00000030: 4cfb 21bd cc61 1e3e 0598 08bf f9a4 a63e
00000040: 8f4d bfbd 8dbc 12bd 4aa8 96bd c198 4fbd
00000050: 5f24 893e 1507 b1bb c705 533f cd30 6f3e
00000060: b4e5 b83d 1d4c f23e 8b76 9a3d 649a ac3c
00000070: 1115 213d 30db 013f d67c 823e 3b9f ddbc
00000080: 6d5b d73e 7bac c43e 1257 883f 2e4a c83d
00000090: 7c26 403e bf99 013f 38fe bb3e fb2a 2e3f
000000a0: e215 db3d 2863 013e aa93 b33e 478f c1be
000000b0: 575f 133e 1a0c 303f 5fd2 aa3e 8e7e a43e
000000c0: 255c e63e cc1c 463e 4284 c13e 7e61 03be
000000d0: 70ac a0be 8599 bfbe 28dd 2c3f 3621 933e
000000e0: 8d8a 283e 9446 56bf dd28 823e 7409 c43e
000000f0: 0a2b bf3e 0e23 0f3f 4463 a03e a65c 263e
00000100: 714d bd3d 5b7e dc3c 11b8 8dbe 2f6f 0f3f
00000110: 738e 9a3e c372 c33e 5d58 0b3e c211 9cbe
00000120: 6331 1e3e 2cbb b9bc 6be7 0bbf 1c29 37bf
00000130: 202c 913e 820c 443e ef2b b33e f71a 853e
00000140: 1dd2 233d e3b9 cb3e ce7e 913e 5b0d 1e3e
00000150: 6709 253f 68ee 053f d2b4 f4bb 1742 c4be
00000160: 7fb6 f83e 7093 0cbd f93e b2be 0ff8 33be
00000170: dcfe fc3e d12b dabe a6d7 76bd 95cf 353c
00000180: bbe7 31be 113d babe 68cf d5bd 395e 333e
00000190: a2c2 b93a a701 6bbe a658 a83d 1d31 cc3c
000001a0: 5e43 423e d3ae 86be 7aa9 44bf 8b2e 293e
000001b0: 92f5 c43e c732 fd3e aed6 eb3e 88e9 053d
000001c0: 56b5 d4bd e8d2 09be d506 a23e 7004 143f
000001d0: 73f2 263f c168 123f 9f24 813e 726e 3bbe
000001e0: 989b 7a3e bf9b d5be b1e1 053d 4f4b 55bd
000001f0: 2571 673e 8122 debe e1d2 233f 4743 9e3d

layers.2.weight f4 [64, 128]
-0.013207346 -0.9393967 0.2501637 -0.018217877 -0.3065521 0.18718642 0.4907029 0.15320718
0.37281743 -0.5566887 0.20608808 0.31026587 0.73371106 -0.051659822 0.680214 0.14654581
-0.39871243 0.33659247 -1.426723 0.58048177 0.1287183 0.6558932 0.15642773 0.10733963
-0.2694518 0.22044 -0.21996693 0.59543073 -0.23947434 0.32633147 0.23729664 0.6085063
0.101001956 -0.20383051 0.22228651 0.7352843 1.1955386 0.4571115 0.26819503 0.29626426
-0.23545264 0.302527 0.40538335 0.81334215 0.3863467 0.5902123 -0.02446205 0.640675
0.24781005 0.5581935 0.28094813 0.6315877 -1.5336064 -1.2410624 0.43186843 -0.15221979
-0.10528567 -3.4231107 0.06588162 -0.12779725 -0.21327743 0.24639326 -0.53215957 0.09073645
-0.3155863 0.9085247 -1.2860893 -0.25531235 0.3114197 0.17465466 0.67158145 -0.2879651
-1.0845509 0.90801066 -0.3816218 -2.224856 -0.24666616 0.41673285 -0.010595329 -0.1737335
-0.2621837 0.39527306 0.7274122 0.36337325 0.55939126 0.33665848 0.6826838 -0.506664
0.5115907 -0.11189014 0.7229896 -0.029294528 0.42587313 -1.539904 0.7357416 -0.56141794
0.72173715 -0.5701027 0.73342186 -0.18750384 0.48910624 -0.5001712 0.8258233 0.8726953
0.0090350425 -1.1057444 -2.6645925 0.053983044 -0.09590187 0.45089054 0.6127939 0.46087447
-0.39162496 -0.22426467 -0.06539287 0.77971715 0.08220935 0.10714516 2.687872 -1.2069118
0.53078115 0.582068 -0.38326186 -0.41006342 -0.13916454 0.16331723 0.32759318 0.30193347
0.016609257 -0.9084192 0.061501022 0.012745094 -0.23112312 0.17219208 0.51660275 0.04430784
0.3894209 -0.60440737 0.30695602 0.25885344 0.6777623 -0.22364008 0.6730964 0.1335406
-0.19706267 0.3802375 -1.3962814 0.501157 0.1375874 0.43289348 0.20905228 0.15997393
-0.18770504 0.14411715 -0.2475189 0.6449225 -0.23714226 0.31714526 0.31805912 0.7468754
0.15346849 -0.15723628 0.2098721 0.7385268 1.1178797 0.42144537 0.30143744 0.27225295
-0.3583814 0.14390096 0.34248486 0.81072754 0.2786642 0.5965574 -0.07119775 0.43960404
0.25437897 0.52126193 0.13682908 0.74664724 -1.5513055 -1.3884231 0.45548096 -0.2799896
-0.31712538 -3.0484757 0.07727402 -0.049583465 -0.35322213 0.3252894 -0.45014745 -0.030101463
-0.266593 0.9912843 -1.3813988 -0.24892162 0.2791813 0.21760967 0.6693071 -0.46037424
-1.066386 0.96983135 -0.26173484 -2.0004601 -0.3383648 0.5446263 -0.0066235014 -0.27361026
-0.3621436 0.37118152 0.7103063 0.33658266 0.56709427 0.3838733 0.8118716 -0.6528589
0.54465514 -0.07922473 0.8403524 0.035044182 0.49020284 -1.7260609 0.8063693 -0.57752657
0.7885659 -0.48600125 0.7684955 -0.21034475 0.6071366 -0.56044745 0.7932696 0.9081814
-0.1039239 -1.1685537 -2.4583333 -0.01902628 -0.027581127 0.35470086 0.5940584 0.5224595
-0.4164937 -0.2449466 -0.052987043 0.63855964 0.11563453 0.045396037 2.5752878 -1.3021996
0.655654 0.42691645 -0.42260844 -0.4995871 -0.13403681 0.26525015 0.23141718 0.151317
00000000: a063 58bc 4d7c 70bf 7515 803e a83d 95bc
00000010: 66f4 9cbe ccad 3f3e 693d fb3e 58e2 1c3e
00000020: ede1 be3e 2783 0ebf c108 533e 2bdb 9e3e
00000030: 7dd4 3b3f 4099 53bd 8122 2e3f 1b10 163e
00000040: 0924 ccbe d955 ac3e dc9e b6bf 749a 143f
00000050: bbce 033e 9ee8 273f 972e 203e e1d4 db3d
00000060: 96f5 89be 06bb 613e 033f 61be 266e 183f
00000070: c338 75be eb14 a73e e4fd 723e 12c7 1b3f
00000080: 1dda ce3d f2b8 50be 139f 633e 983b 3c3f
00000090: 6907 993f 850a ea3e dc50 893e f3af 973e
000000a0: 7f1a 71be d2e4 9a3e 688e cf3e 3137 503f
000000b0: 3ccf c53e 2718 173f a364 c8bc 4703 243f
000000c0: ebc1 7d3e c5e5 0e3f 6fd8 8f3e bbaf 213f
000000d0: 374d c4bf 22db 9ebf dc1d dd3e 81df 1bbe
000000e0: 03a0 d7bd 3f14 5bc0 f1ec 863d 48dd 02be
000000f0: 6665 5abe 844e 7c3e 9c3b 08bf 08d4 b93d
00000100: 8794 a1be 1395 683f 939e a4bf 4db8 82be
00000110: 6772 9f3e acd8 323e c3ec 2b3f 2970 93be
00000120: 90d2 8abf 6373 683f ef63 c3be 0a64 0ec0
00000130: 0e96 7cbe 025e d53e 0898 2dbc 32e7 31be
00000140: f13c 86be 3b61 ca3e b037 3a3f 0f0c ba3e
00000150: 4434 0f3f 805e ac3e 5ec4 2e3f bbb4 01bf
00000160: 9cf7 023f a826 e5bd d915 393f 14fb efbc
00000170: 0b0c da3e 931b c5bf 9059 3c3f 16b9 0fbf
00000180: c4c3 383f 40f2 11bf 89c1 3b3f 0201 40be
00000190: 226c fa3e 380b 00bf 2869 533f f668 5f3f
000001a0: b707 143c 0889 8dbf af88 2ac0 531d 5d3d
000001b0: 3368 c4bd 20db e63e 10e0 1c3f bdf7 eb3e
000001c0: 1183 c8be a3a5 65be b2ec 85bd 8b9b 473f
000001d0: 605d a83d ec6e db3d 1806 2c40 167c 9abf
000001e0: 46e1 073f 6902 153f e63a c4be d5f3 d1be
000001f0: 2681 0ebe a23c 273e 4bba a73e 0697 9a3e
00000200: 2310 883c 298e 68bf 7fe8 7b3d ccd0 503c
00000210: 8aab 6cbe 1f53 303e 1440 043f 237c 353d
00000220: 2d62 c73e 71ba 1abf 5729 9d3e 7088 843e
00000230: d581 2d3f e801 65be 0c50 2c3f debe 083e
00000240: ccca 49be 7dae c23e 59b9 b2bf d34b 003f
00000250: b6e3 0c3e 37a4 dd3e cd11 563e 35d0 233e
00000260: c035 40be 7293 133e 9875 7dbe a419 253f
00000270: 6cd5 72be dd60 a23e a5d8 a23e 3a33 3f3f
00000280: d826 1d3e 8c02 21be b6e8 563e 1810 3d3f
00000290: af16 8f3f b0c7 d73e 0256 9a3e bd64 8b3e
000002a0: c47d b7be c65a 133e 2d5a af3e d78b 4f3f
000002b0: 13ad 8e3e fcb7 183f 20d0 91bd c813 e13e
000002c0: f63d 823e 6c71 053f ec1c 0c3e 4624 3f3f
000002d0: 2e91 c6bf d9b7 b1bf cd34 e93e cc5a 8fbe
000002e0: 425e a2be 3a1a 43c0 d741 9e3d 0818 4bbd
000002f0: 88d9 b4be 558c a63e ba79 e6be 5897 f6bc
00000300: e17e 88be cfc4 7d3f add1 b0bf 4fe5 7ebe
00000310: daf0 8e3e 12d5 5e3e b657 2b3f 2cb6 ebbe
00000320: 567f 88bf de46 783f 1c02 86be 8a07 00c0
00000330: 273e adbe a16c 0b3f f509 d9bb a516 8cbe
00000340: e36a b9be 810b be3e a2d6 353f 9054 ac3e
00000350: 172d 113f 0b8b c43e d1d6 4f3f c321 27bf
00000360: 856e 0b3f 9340 a2bd 5621 573f 7d8a 0f3d
00000370: defb fa3e 90ef dcbf 386e 4e3f c8d8 13bf
00000380: 74df 493f 28d5 f8be 1fbc 443f 9d64 57be
00000390: 4e6d 1b3f 7c79 0fbf b713 4b3f 947e 683f
000003a0: 0ed6 d4bd 2b93 95bf 5555 1dc0 00dd 9bbc
000003b0: d1f1 e1bc 5a9b b53e 3614 183f e8bf 053f
000003c0: aa3e d5be 48d3 7abe f108 59bd a578 233f
000003d0: ccd1 ec3d 32f1 393d 84d1 2440 7aae a6bf
000003e0: f1d8 273f cb94 da3e 2260 d8be e1c9 ffbe
000003f0: f240 09be dece 873e a0f8 6c3e d8f2 1a3e

layers.2.bias f4 [64]
0.34591573 0.2811188 0.13623227 -0.018818129 0.046260722 0.068148084 0.15981863 0.006628338
0.15318683 0.15200661 -0.111223765 0.27957115 0.10507055 0.29877645 0.26038322 0.049990226
0.08231861 0.032811195 -0.06131041 -0.14806111 0.069580935 0.12310013 0.04458042 0.048318606
0.070118375 -0.25224885 0.07937279 0.024609689 0.1150533 0.114090465 0.32844755 0.17796706
0.52649194 0.08821084 0.24668334 0.4138058 -0.017055258 -0.049956772 0.17468439 -0.030725496
0.15254803 0.05017321 0.33191928 -0.045766864 0.09829172 0.07254521 0.0746579 -0.0019122156
0.17144555 0.36664435 0.007963814 0.146657 0.1280883 0.15134118 0.018757876 0.17423166
-0.02930954 0.009933743 0.35207158 0.022298595 0.09154254 0.016708607 -0.019409185 0.246055
00000000: de1b b13e ceee 8f3e 7980 0b3e 7a28 9abc
00000010: e27b 3d3d 3991 8b3d 7fa7 233e 8732 d93b
00000020: 02dd 1c3e 9fa7 1b3e 49c9 e3bd f323 8f3e
00000030: 3b2f d73d 3af9 983e f350 853e 8dc2 4c3d
00000040: a996 a83d 0865 063d a020 7bbd 559d 17be
00000050: 7380 8e3d ec1b fc3d f599 363d bbe9 453d
00000060: 399a 8f3d c326 81be 348e a23d 429a c93c
00000070: 11a1 eb3d 43a8 e93d 472a a83e ff3c 363e
00000080: 2dc8 063f e3a7 b43d 8f9a 7c3e 5bde d33e
00000090: 78b7 8bbc 799f 4cbd 77e0 323e 09b4 fbbc
000000a0: 8d35 1c3e 6d82 4d3d 53f1 a93e 0976 3bbd
000000b0: 2b4d c93d 9592 943d 3ee6 983d 4fa3 faba
000000c0: 6c8f 2f3e cfb8 bb3e a87a 023c 412d 163e
000000d0: 9429 033e 2ff9 1a3e 1eaa 993c c969 323e
000000e0: 8f1a f0bc 23c1 223c ba42 b43e 8bab b63c
000000f0: a87a bb3d 7de0 883c 0300 9fbc d8f5 7b3e

layers.4.weight f4 [4, 64]
0.7802288 0.7758427 -0.90510297 0.0094946455 -1.4911898 -1.644145 -0.92707735 -1.8121288
-1.8699248 -1.2186817 0.45061934 1.1301485 0.030162478 -0.4022976 0.60874665 -1.4527186
-0.95361173 0.1524876 -1.99217 -0.9837177 -1.6007133 2.3888216 0.3553857 0.32918778
-0.7998498 -1.8823332 0.5099454 0.74618244 2.3684025 0.557257 0.7163578 -1.0501751
1.2506436 -1.6285186 -0.99404 0.82139546 -2.3262165 -0.040654358 -0.8821962 0.011110171
-0.8514639 -0.8653058 0.7540678 -0.8151846 -0.9247331 0.49992386 -1.308265 -1.6173868
-0.11191295 0.90497476 0.0036038666 -0.9866643 -1.8864833 -0.84595686 -1.5060116 -0.76339823
1.0696083 0.025483346 0.70130295 0.042917583 -2.2638893 -0.96496415 0.07307728 -0.22994174
0.8921973 0.9014776 -0.7650738 -0.015670711 -1.2985314 -0.99746114 -0.91935813 -1.4942691
-1.6801131 -1.1876173 -0.66703814 1.1069429 -0.45742044 -0.6113915 -0.57546276 -1.2812611
-0.67984116 0.29216182 -1.9019508 -1.1307021 -1.4276443 2.3044214 0.29108468 -0.03801341
-0.88388383 -1.5943025 0.68258 0.74106354 2.3029943 0.71957135 0.8958191 -1.3910539
1.3781852 -1.6592649 -0.9494749 0.842547 -2.548693 0.01546692 -0.903865 0.02345557
-0.83417016 -1.043899 0.84024495 -0.7836309 -0.93430907 0.1279091 -1.6757932 -1.6989022
-0.71934456 0.87015164 -0.025128838 -0.6686891 -2.0704174 -0.94114614 -1.3464242 -0.87647957
1.4491825 -0.008671209 0.85285443 0.0460838 -1.5294522 -1.0620352 0.030848557 -0.8904962
0.801361 0.6731437 -0.78613985 -0.050190676 -1.3936552 -1.0571431 -0.847636 -0.29610065
-2.0312946 -1.1924809 0.92230856 0.54394805 -0.7468585 -1.0319481 0.25623348 -0.98090667
-0.8041241 -0.81361175 -2.2310934 -1.2048355 -1.0978326 2.514027 -0.38715544 0.7105432
-0.86114436 -2.8271978 0.74732643 0.7073105 2.0424733 0.70529526 0.705499 -1.11002
1.2204056 -2.314976 -0.7941399 0.8846094 -1.9543941 -0.054543063 -0.83645314 0.008887101
-0.73651713 -1.2289425 1.0049015 -1.8765935 -0.9235721 0.59040636 -1.4003501 -1.1138959
1.0525008 0.9991255 0.032427926 -0.7202922 -2.3554757 -0.81620646 -1.4186468 -0.85480195
1.7651943 -0.006173558 0.716674 -0.01659549 -2.2159183 -0.95686483 0.0042543937 0.77876806
0.9625477 0.94725025 -0.8186831 0.039388098 -1.3097792 -1.4864558 -0.7629486 -1.6144854
-1.3284134 -1.1967485 1.1350783 1.0534153 -0.0027955119 -0.45166013 0.8770417 -1.6556774
-1.0937037 -1.0865031 -2.6622803 -1.2114336 -1.6064554 2.2599924 0.15866594 -0.22758448
-0.99107677 -2.6025655 0.47722062 0.94203293 1.8634955 0.44218805 0.95208186 -0.6806942
1.1116669 -2.1286564 -0.8153791 0.55093956 -1.6213421 -0.025909543 -0.7435916 -0.03045506
-0.7222695 -1.3328586 0.8090979 -0.9761981 -0.82836545 1.0072601 -1.5548664 -1.4619261
-0.37919012 0.7556998 0.051663645 -0.999055 -2.0308814 -0.74584603 -1.4418265 -0.8528031
0.47157183 0.02954281 0.9527173 0.02210605 -2.5124104 -1.0980973 -0.048129108 -0.21167691
00000000: 13bd 473f a19d 463f d4b4 67bf 6e8f 1b3c
00000010: 4fdf bebf 5873 d2bf f154 6dbf d6f3 e7bf
00000020: b259 efbf c3fd 9bbf 94b7 e63e b5a8 903f
00000030: 4d17 f73c f3f9 cdbe d2d6 1b3f aff2 b9bf
00000040: e61f 74bf b625 1c3e 6dff febf ecd4 7bbf
00000050: 2ce4 ccbf 74e2 1840 1df5 b53e 4d8b a83e
00000060: f5c2 4cbf 4bf0 f0bf c88b 023f d005 3f3f
00000070: e893 1740 65a8 0e3f 3a63 373f 236c 86bf
00000080: 1715 a03f 4c73 d0bf 6879 7ebf f946 523f
00000090: bbe0 14c0 2f85 26bd 9cd7 61bf 6f07 363c
000000a0: 8af9 59bf ae84 5dbf 960a 413f f0af 50bf
000000b0: 4fbb 6cbf 05f6 ff3e 3a75 a7bf 8806 cfbf
000000c0: 9e32 e5bd 6dac 673f d92e 6c3b 0896 7cbf
000000d0: 4978 f1bf a190 58bf fdc4 c0bf 116e 43bf
000000e0: ede8 883f 73c2 d03c 9788 333f 59ca 2f3d
000000f0: 90e3 10c0 e407 77bf 8aa9 953d d975 6bbe
00000100: 0b67 643f 3cc7 663f e0db 43bf dd5f 80bc
00000110: 4736 a6bf 9d59 7fbf 0e5b 6bbf 3644 bfbf
00000120: f20d d7bf d803 98bf 03c3 2abf 4eb0 8d3f
00000130: 0333 eabe 2784 1cbf 8751 13bf 5d00 a4bf
00000140: 120a 2ebf 3c96 953e 2073 f3bf d9ba 90bf
00000150: 0cbd b6bf a47b 1340 0d09 953e f3b3 1bbd
00000160: 3646 62bf 1b12 ccbf 90bd 2e3f 57b6 3d3f
00000170: 4264 1340 d435 383f 6754 653f 0e0e b2bf
00000180: 5f68 b03f cb62 d4bf c910 73bf 29b1 573f
00000190: c91d 23c0 f768 7d3c b263 67bf e525 c03c
000001a0: 2d8c 55bf 7c9e 85bf 4b1a 573f 099c 48bf
000001b0: e12e 6fbf 9afa 023e 6480 d6bf a175 d9bf
000001c0: f726 38bf 42c2 5e3f feda cdbc 352f 2bbf
000001d0: b881 04c0 f4ee 70bf a157 acbf f760 60bf
000001e0: d07e b93f b011 0ebc ab54 5a3f 5ec2 3c3d
000001f0: 17c5 c3bf c5f0 87bf 1db6 fc3c 8ff7 63bf
00000200: ff25 4d3f 2553 2c3f 7640 49bf bd94 4dbd
00000210: 4b63 b2bf 7750 87bf acfe 58bf 819a 97be
00000220: bb00 02c0 37a3 98bf 6a1c 6c3f 2e40 0b3f
00000230: 1e32 3fbf e016 84bf 0931 833e b31c 7bbf
00000240: 14db 4dbf dc48 50bf 3cca 0ec0 0d38 9abf
00000250: c785 8cbf d2e5 2040 3d39 c6be 29e6 353f
00000260: f573 5cbf cff0 34c0 c950 3f3f 4d12 353f
00000270: e2b7 0240 3b8e 343f 959b 343f 2315 8ebf
00000280: 4036 9c3f 9128 14c0 c14c 4bbf c375 623f
00000290: 9629 fabf 8c68 5fbd cb21 56bf 349b 113c
000002a0: 638c 3cbf fd4d 9dbf 9da0 803f 3734 f0bf
000002b0: 396f 6cbf df24 173f ac3e b3bf 2494 8ebf
000002c0: 59b8 863f b0c6 7f3f 25d3 043d 1265 38bf
000002d0: 1dc0 16c0 e8f2 50bf 3896 b5bf 4dd4 5abf
000002e0: e3f1 e13f 8f4b cabb f277 373f 44f3 87bc
000002f0: 9bd1 0dc0 18f5 74bf 7168 8b3b 585d 473f
00000300: 8769 763f fe7e 723f 3795 51bf 6a55 213d
00000310: d8a6 a7bf 2f44 bebf 9950 43bf 75a7 cebf
00000320: 7309 aabf 0e2f 99bf 3f4a 913f 50d6 863f
00000330: e834 37bb ff3f e7be ce85 603f 3ded d3bf
00000340: 7cfe 8bbf 8912 8bbf cd62 2ac0 4210 9bbf
00000350: 55a0 cdbf b7a3 1040 5379 223e e80b 69be
00000360: 35b7 7dbf 6f90 26c0 4356 f43e 1229 713f
00000370: 0587 ee3f 7966 e23e a3bb 733f fa41 2ebf
00000380: 1a4b 8e3f e83b 08c0 afbc 50bf 600a 0d3f
00000390: 2388 cfbf 4040 d4bc 055c 3ebf e47c f9bc
000003a0: a7e6 38bf 1c9b aabf 0a21 4f3f 1ee8 79bf
000003b0: c20f 54bf e6ed 803f dd05 c7bf 6520 bbbf
000003c0: 3525 c2be 8b75 413f 429d 533d 12c2 7fbf
000003d0: f6f9 01c0 c4ef 3ebf c58d b8bf 4e51 5abf
000003e0: dd71 f13e c303 f23c 48e5 733f bf17 b53c
000003f0: 55cb 20c0 748e 8cbf 0723 45bd d5c1 58be

layers.4.bias f4 [4]
0.029862335 0.012288211 0.03734511 0.23942383
00000000: dba1 f43c 7e54 493c 30f7 183d 852b 753e
