saved_models/DQN_episode_471.pth (torch, 41432 bytes, 6 tensors)

layers.0.weight f4 [128, 8]
00000000: 191d b33d 3b3f 36bd 4ed4 85bf 0fe1 68bf
00000010: 0ff5 acbe 9ef4 a63c 2fbc 263d 80f9 323e
00000020: 7bd1 723e 8ead 223e 9ba2 2bbe 8caa e9be
00000030: f260 48bf 4320 00bf 377a c5bc 7d11 a33e
00000040: d742 60bc 918a 1dbe 66ef 2abe c426 043f
00000050: f3b6 1d3e 3847 623f 90d0 373d ce52 e13e
00000060: 4553 2d3e 2f93 413c 1d36 013f 71ca 0cbf
00000070: 07b4 ddbe 1a01 92be 76c0 02be 9370 243d
00000080: d2d3 37be 120e 153e 5391 07be 2621 2ebf
00000090: 5b71 b8bd 529e b73e ceea c33e 96cc 963e
000000a0: 5c1c 953e c7d8 89bc 42dc 1d3e 1eea cfbe
000000b0: 619e dbbe 1de2 6bbe 3648 623e ccce eb3d
000000c0: d388 a33d a7d8 5abf e6fc 543f 81ac 043f
000000d0: acac 103f 5201 683d d75f 0e3f 92aa 01be
000000e0: 7c26 d83e 556b 2fbf be8c 21be fa73 cbbe
000000f0: 6903 5f3f 5785 4e3e fd69 32be 878b 203d
00000100: b2a8 233e 6822 4d3e c3e4 033e 756e 7dbe
00000110: 592b bfbd e9f3 7a3f 2088 3bbe 3f3a d9be
00000120: 99f5 723e 00a6 ec3e 22a3 d23e 1883 cc3c
00000130: edd9 98be c723 e1be b3be cfbc 6987 86bd
00000140: 6eaf 91be b935 e43e 041c b73e ca59 bebe
00000150: de16 d3bd 9953 5dbe 7a5d e93c f37d 6dbf
00000160: dcc2 813e 3b2e b7bd d95a f43d a5c8 83be
00000170: a0fe 1a3c 59ab 2f3f c4a2 73be ebb5 dd3a
00000180: 45e0 4c3f 24cb 583f 9fa2 d6be e269 d63d
00000190: dff6 053f b981 f43e c4a5 f63d 91a3 663e
000001a0: de7d aebe a43c afbe 3aa5 8bbe 3498 4fbe
000001b0: 6234 353e 9600 ec3e effd c73d d0b1 bc3e
000001c0: f987 03bf 06cd 083f e023 203f 8698 93be
000001d0: a48d 61be 4b1f ed3c 737c 06bd 54ae 5bbe
000001e0: e3cb 643e bafd 59bd 8a94 fe3e 52fc 683e
000001f0: b13d 81bf ddf3 a0be ce9e f53c 2a06 b53d
00000200: 45c0 373d 4b78 c7bf 8195 163e 1301 12be
00000210: c8e5 68bf fd74 92be 7b35 f93d 9dc6 e73d
00000220: 5534 c6bd 6797 e4be 85ae 71be c95e c43e
00000230: 7ac3 1e3f eb2e cf3e f31c e83e cd54 9b3c
00000240: c063 8dbe a5ab 39be efd0 c63e 091f 8abe
00000250: 1fc5 1dbf c4b2 0cbf 81e1 80be 220c 4abf
00000260: f50f 093d 1917 e83e 5c78 0d3e 2f14 ffbe
00000270: 68d8 093e da00 f3be 8209 d8be 0d55 12bf
00000280: b806 96be 6e7c 3a3f 10b7 62bf c456 86bf
00000290: 6dc3 a2be 3724 283e 995c c9bd e3aa 34be
000002a0: 8e59 02bf c96e d8bd 4f93 de3e 7f3d a8be
000002b0: 735d 86bd eae3 82bd 8c66 1cbf a195 ce3e
000002c0: 039d 1ebd 1bc3 df3e 361c 133e d725 37bf
000002d0: d907 babe dc9d 70be 6893 af3d 8dbb 843c
000002e0: 3224 b83e 7606 b2bd da85 e13c 09a8 253d
000002f0: 65b3 01bf 791d 7d3e 83db 9c3e 335a 3d3e
00000300: 3ff3 8cbd 0647 a73d 8570 0cbd 8409 5ebe
00000310: a160 8bbf f924 873e d518 2cbd c887 d83d
00000320: e42e 71bc 5b53 c23e 3dd2 96be 5586 f7be
00000330: ffe4 2fbe bc7e 5d3f 1ce1 06bd 5285 e0be
00000340: 5970 ad3e a801 27bf 73bc 65be 58ff 28bf
00000350: 88e2 27be 0301 6fbe 3259 7c3d 9248 5dbd
00000360: a639 80be f289 063d 0cb1 963d c7cb df3c
00000370: 23ff 36be 195b 973f cdd6 36bd c5e8 8e3e
00000380: 30dc 40bf 6503 2e3f abed 0abf 0a7c 54be
00000390: 47af 13bf 5145 25bd fbf7 583c 5104 153e
000003a0: 13f1 6d3e b28b 153f 38ea 463e b7ee 6fbe
000003b0: dfbb 553e 9d76 bcbe 22bd 90bd f70a 04bf
000003c0: 40e7 bdbc 1919 9e3e b376 1fbe 2015 83be
000003d0: 0b86 25bf f565 01bf fe31 893d 7919 23bf
000003e0: 4cd0 3c3e dd87 e5bc 2821 32bb ba80 0cbe
000003f0: 915b 513f b033 26bd c93c 79bf 0ceb adbe
0.08745784 -0.044493895 -1.0455415 -0.9096841 -0.33780715 0.020380314 0.04070681 0.17477989
0.23712723 0.15886518 -0.16761248 -0.4563793 -0.78272927 -0.5004923 -0.024106128 0.3184928
-0.013687811 -0.1538489 -0.16692886 0.5162165 0.15401821 0.8838992 0.044876635 0.44008487
0.16926296 0.011814876 0.50473195 -0.549964 -0.43301412 -0.28516465 -0.1276873 0.04014642
-0.17951897 0.14556149 -0.1323903 -0.6801933 -0.09005996 0.35862976 0.3826508 0.29452962
0.291232 -0.016827 0.15416053 -0.40608305 -0.4289427 -0.23035474 0.22097859 0.11514053
0.079850815 -0.85486835 0.8319839 0.5182572 0.56513476 0.056641884 0.5561499 -0.12662724
0.4221686 -0.6852315 -0.15776345 -0.3973692 0.8711458 0.20168053 -0.17423244 0.039195564
0.15982321 0.20032656 0.12880234 -0.24749167 -0.0933444 0.9802843 -0.18313646 -0.4242725
0.237265 0.46220398 0.41140085 0.024964854 -0.29853764 -0.43972608 -0.025359487 -0.06568796
-0.28454155 0.44572237 0.35763562 -0.3717788 -0.10307096 -0.21613921 0.028486956 -0.9277031
0.25343978 -0.08944365 0.1193139 -0.25739017 0.009460121 0.6862083 -0.23792559 0.0016915178
0.8002971 0.8468497 -0.41920945 0.10469414 0.5232982 0.4775522 0.12043336 0.22523333
-0.34080404 -0.34225953 -0.27274495 -0.20272905 0.17695764 0.46094197 0.09765231 0.3685441
-0.5137935 0.5343784 0.6255474 -0.28827304 -0.22026688 0.028945586 -0.032833528 -0.2145322
0.22343402 -0.053220488 0.497227 0.22752503 -1.0096952 -0.31436053 0.02998295 0.08839066
0.044861097 -1.5583586 0.14705469 -0.14258222 -0.9097562 -0.2860488 0.12168404 0.11317179
-0.0967795 -0.4464676 -0.2360173 0.38353565 0.62017024 0.40465483 0.45334587 0.018961335
-0.27615166 -0.18131883 0.3883128 -0.26976803 -0.6162891 -0.54960275 -0.25172046 -0.78924763
0.033462483 0.45330122 0.13815445 -0.49820086 0.13461459 -0.47461587 -0.42194754 -0.5716103
-0.29302 0.72846115 -0.8856058 -1.0495229 -0.31789723 0.16420065 -0.09832115 -0.17643313
-0.509179 -0.105680056 0.43471763 -0.32859418 -0.06560793 -0.063911274 -0.61093974 0.40348533
-0.038723957 0.4370354 0.1436623 -0.71542114 -0.36334112 -0.23497719 0.085730374 0.016202712
0.35965115 -0.086926386 0.027529646 0.040443454 -0.5066436 0.24718274 0.30636224 0.1849144
-0.06882333 0.081678435 -0.034286994 -0.21683317 -1.0888864 0.26395395 -0.04201587 0.10572773
-0.014720652 0.3795422 -0.29457274 -0.48344675 -0.17177199 0.86521506 -0.032929525 -0.43851715
0.33874777 -0.652369 -0.22435169 -0.66014624 -0.16395009 -0.2334023 0.0616085 -0.054024287
-0.25043982 0.0328464 0.07357988 0.027318848 -0.17870764 1.1824676 -0.044638444 0.27911964
-0.7533598 0.6797393 -0.542689 -0.20750442 -0.57689327 -0.04034931 0.013242717 0.14552428
0.23236494 0.58416283 0.19425285 -0.23430906 0.20872448 -0.36809245 -0.07067324 -0.5157923
-0.023181558 0.30878523 -0.15572624 -0.25602055 -0.6465766 -0.505462 0.066989884 -0.63710743
0.18438834 -0.028018886 -0.0027180407 -0.1372098 0.81780344 -0.040576637 -0.97358376 -0.3396839

layers.0.bias f4 [128]
00000000: 0ee1 5d3c f17b f3be 2b91 e8bd 28d4 753e
00000010: f608 e43d e8db 763e f1a3 a63e 4d7e 8dbd
00000020: 9626 ac3e 10da 1dbe 36b7 fd3d c7f2 c93e
00000030: 0da0 53bd 0fad 233e f976 26be 35c5 1ab9
00000040: a023 953e 09fc a73e ed30 7fbc 6b83 bcbd
00000050: 006a c73d 0057 803e 23ce cf3e f661 863e
00000060: 1830 4fbd ca29 003f 1d20 e3bd e5f9 9cbd
00000070: d371 f63d a913 1a3f d260 15be 3b6a 03be
00000080: c8ae 003f 7742 ce3e 740b 483f 589e 813e
00000090: 628b 853e 57cc f73e e942 953d 8986 e43e
000000a0: 7e07 50bc fbb6 57be 7d67 393e f005 8dbd
000000b0: 8b75 b23e e2ec 5c3e 454b 5d3e b228 9ebd
000000c0: 81b8 163f 64e1 7b3c cb75 183f 773a 58be
000000d0: ba01 74be e808 efbd c6a6 353f ec37 873e
000000e0: db53 e63e 1fec ecbe 33a3 a23e 4702 85be
000000f0: 36f4 8a3e 8467 153f 22d4 463e a848 78bd
00000100: e5e9 2e3e 1f8d 64be 7924 57be a09c 443f
00000110: 32ab cb3d 5b09 cabd d473 183e c3d6 efbd
00000120: b0ca 153e c3c8 783d aaa6 e63d c1a9 bc3d
00000130: 063d 803d 48c5 a53e dfe0 f53e 6293 1d3f
00000140: 3d5c 26be 2a51 a43e e241 70bd 0bba 623d
00000150: a178 3d3e 3093 533e 8e2f 103f ab8a 363c
00000160: 25af 34bd bbda b53d 6ff6 e4bd ed0f de3d
00000170: 9af2 2f3e 4f6a 89be 427b 8ebc 6423 ea3c
00000180: 98ae 143e 6b30 a9be 0400 e7bd 1027 8a3e
00000190: 6711 d5be 2b0c 0e3d 82f2 5ebd c19e 72be
000001a0: 96b7 523e bb24 6ebd 9a3f 8fbe 26e5 9a3e
000001b0: 341f a63d 7e9c 1c3f af93 c43d 8a3f b23e
000001c0: 206b b7bd 58c0 d4bd b86a e73e 4a2c 66bd
000001d0: fb43 bc3e 1cf7 cf3e e294 5cbe fa61 ecbe
000001e0: 6d7f 493f aade ccbb db24 c63d 8e78 0bbe
000001f0: c43d a93e f9e5 04bf 2c3f cc3d 6152 b2be
0.013542427 -0.47555497 -0.113558136 0.24006712 0.11134522 0.24107325 0.32546952 -0.069088556
0.3362319 -0.15415215 0.1238846 0.39443037 -0.05166631 0.15983985 -0.16256322 -0.0001476005
0.29128742 0.32809475 -0.01557563 -0.092047535 0.09737015 0.25066376 0.40586957 0.26246613
-0.050582975 0.50063765 -0.110901095 -0.07664851 0.12033429 0.6018625 -0.14587715 -0.12833492
0.50266695 0.40285084 0.78142476 0.2531612 0.26082903 0.48398086 0.07288153 0.44633892
-0.012697099 -0.21065895 0.18105884 -0.06885898 0.34855303 0.21574739 0.21610744 -0.07722606
0.5887528 0.0153735615 0.5955474 -0.21116053 -0.23828784 -0.116716206 0.709576 0.26409853
0.44985852 -0.46273896 0.31765136 -0.259783 0.27139443 0.5836108 0.1941686 -0.060616165
0.17081411 -0.22319458 -0.21010007 0.7680149 0.09944762 -0.09865066 0.14887935 -0.117108844
0.146281 0.060738336 0.112622574 0.092120655 0.06261639 0.32377076 0.48023126 0.61553013
-0.16246124 0.32093173 -0.05865658 0.055353206 0.18503048 0.20661616 0.5632256 0.011141459
-0.044112343 0.0887961 -0.11179816 0.10842881 0.17182389 -0.2683892 -0.017392758 0.028581329
0.14519727 -0.33044752 -0.112793 0.26982927 -0.4161484 0.034679573 -0.054430492 -0.23693372
0.20577845 -0.058140498 -0.27978212 0.3025295 0.0811142 0.6117629 0.09598481 0.348141
-0.08955979 -0.10388249 0.45198607 -0.05619458 0.36770615 0.40618217 -0.2154117 -0.461685
0.7871006 -0.0062521296 0.096749984 -0.13620207 0.33054936 -0.5191341 0.099729866 -0.34828475

layers.2.weight f4 [64, 128]
00000000: 0dcb f93e ce74 4abf 4f02 97be 3fe8 033d
00000010: 39be 61be c0d7 003e 5248 bc3e 289f 9abd
00000020: 09b5 9b3e 7295 91be 5b9d f63d b90e c93e
00000030: b7a7 763f 5630 57be cb6a 733e 6bd6 ab3e
00000040: a7f5 2c3f cc5c f1be 970c 8bbf e954 973e
00000050: 9e37 96bd d204 333f 03b0 8a3d d43f 1dbd
00000060: d1fd 6e3f 1c9d 933e 34fe d2be 6f77 05bf
00000070: c7be 68be dfc6 953e 9e67 fb3e 8f3c 7abf
00000080: 38bb 553d 5a21 a93e 54ad 8b3e 7345 3e3f
00000090: ece8 383e aab3 5fbd ea9e 3cbf 01d9 5e3c
000000a0: 42dd 07bf b80a c9be 7141 67bd 277b 083f
000000b0: d07b b33e ec47 2dbf 5d52 94be ee23 12be
000000c0: a7af 983e c2c8 c2bd 6cbf a33e 7122 7b3f
000000d0: 411c 05bf bc61 f9be 8b88 5d3e 0afb 173f
000000e0: 77e9 05bf 29da 95bf b201 b03d 25c5 f8be
000000f0: bae2 e6be 7f9d 6e3e 8ba6 b3be fcb0 68bf
00000100: efb3 f83b bae5 82be ec39 96bf 7672 623f
00000110: 23f6 ea3e 6c47 00be 0f2c 013e a8a6 9abd
00000120: bc73 92be 5769 51bf b45f 1fbe 1311 33bd
00000130: 33df 8cbe 4838 87be dfdb 3f3e 1ef8 703e
00000140: f72e 5ebf e190 003f 5bea 6f3f 58d9 723f
00000150: dce4 ae3b 03c0 29bf 903d 743e d583 d8be
00000160: 246a a63f aec0 3abe 147f 2cbd e8bd 9cbe
00000170: bed1 7bbc 66cb ba3e 8033 4a3e 23ea 82be
00000180: 4cf8 fcbc d106 00bf cd20 c8be 9ead 8f3e
00000190: f3e1 063d 0977 81bd d8e2 f53e 5807 48be
000001a0: 95a6 8d3d 2582 613e 950b 03bf 0059 c2bd
000001b0: 8ce4 dc3c 77e5 ed3e 8e6b ee3e 717a e0be
000001c0: 0296 2bbf 2e52 2c3d 18ad 113e 1f99 623f
000001d0: af39 233e fd6f fe3d f995 80bf 1863 ebbf
000001e0: c267 b53d 9034 7d3f 3b3e 3dbe 1226 1dbf
000001f0: d7bb e8bd e3eb 143f 26b9 c23d 5e82 2abf
00000200: 656a 51be 54f1 b23d 41cb 233e 0891 663e
00000210: bf72 c93e e5a9 cd3c cc84 2cbf 0a6f 863e
00000220: f578 33be 4b9e c9bd 8e95 1d3e 4cd9 ffbd
00000230: 9609 f9be 4ac5 a93e 1d78 88be f743 92be
00000240: 12ca 89be 8d7b 2dbb 6f30 5c3e 542d a2be
00000250: 4c68 903e 6e17 44be 34f9 203e 3000 0b3e
00000260: ff07 54bf c656 143e b0c7 b23e f737 653e
00000270: 8199 163f ba21 bf3c 0bd5 67be 7fc5 1c3f
00000280: 9f21 863e b490 83be 8959 073e e810 22bf
00000290: 6f42 223f 7a07 193e 00f0 9c3e bb1e d53d
000002a0: 50a3 983e 4a63 2e3f 8a4d 0d3e 288e 1ebf
000002b0: 9794 81be eaf5 9a3e b2c1 ab3d ae5e a33e
000002c0: 368d d2bc ad35 f93e a00a 5ebe dc64 13bf
000002d0: 8963 213e cd4b 123f 4101 c7bd c07c 40bf
000002e0: 616b 993e a58a d63e 6de6 0f3e 1f99 f23e
000002f0: ca10 643d d8ed 22be 8709 353e e41c 103f
00000300: bc91 4a3c dee8 753e 2ade a13e 89be 88bf
00000310: 5e21 aebe 46e8 413e 08f1 53be 0ea8 883e
00000320: afbf 203e 8cf8 7f3e dbca b23e 688e 7f3e
00000330: 8fe5 0d3e 569a 533e 6f09 053e cdb8 2c3e
00000340: faff 483e d3b9 82be 7ac4 14bf f50e ebbe
00000350: 041d 70bb 9006 a63e ef12 e43d fb81 c43e
00000360: 1212 8fbf d750 813e 903c 4abc ec5f 883f
00000370: 5e11 f6bc cbbe c6be b734 71bd 7a6b f63d
00000380: 8a77 b73e 7416 e43e 879b e83e c1df df3c
00000390: 11a8 d13e 73c0 713e 7ad1 49bf e360 033f
000003a0: 1ec3 be3e 5b3c 3ebf 2869 2d3e 4bda 3c3e
000003b0: eef1 a4bc acc1 1b3e ff66 62bf 6d3f 413e
000003c0: 2c6b ce3d d995 e23d ecee e33d 51ac fcbe
000003d0: f144 073e 59a2 443e c5c0 b23e a69d bd3e
000003e0: ef77 083e d18f 81bf e11a 5b3d ee52 943e
000003f0: 8d5f ac3e 4b5a 5cbf 233d 4f3e 3e73 9a3d
0.48787728 -0.7908448 -0.2949395 0.03220391 -0.2204522 0.12582302 0.36773926 -0.07549888
0.30411556 -0.2843433 0.12041732 0.39269045 0.9634966 -0.21014532 0.23771207 0.33562025
0.67562336 -0.4714111 -1.0863217 0.2955697 -0.07334827 0.6992923 0.06771853 -0.03839095
0.93356043 0.28830802 -0.41209567 -0.52135366 -0.22729026 0.2925329 0.4910249 -0.97748655
0.0521805 0.33033258 0.27280676 0.7432472 0.18057603 -0.0546147 -0.73679984 0.013601542
-0.5307199 -0.3926599 -0.056458894 0.53312916 0.350554 -0.6768787 -0.28969088 -0.14271519
0.29821512 -0.09510948 0.3198198 0.9809943 -0.5199624 -0.48707378 0.21634118 0.5936743
-0.52309364 -1.1707202 0.08594073 -0.4858791 -0.45094854 0.23302267 -0.35088 -0.90895057
0.007589809 -0.25565892 -1.1736426 0.88455904 0.45890912 -0.12527245 0.12614463 -0.075513184
-0.28603923 -0.8180136 -0.15563852 -0.043717455 -0.27514037 -0.26410127 0.18736218 0.23532149
-0.8679041 0.5022107 0.93716973 0.9486289 0.0053373408 -0.6630861 0.23851609 -0.4228808
1.3001142 -0.18237564 -0.04211338 -0.30613637 -0.015369831 0.36483306 0.19746208 -0.25569257
-0.030880116 -0.500104 -0.39087525 0.28062147 0.032930326 -0.06321532 0.4802463 -0.19534051
0.069165386 0.22022302 -0.5118955 -0.09489632 0.026964448 0.4646413 0.46566433 -0.43843415
-0.6702577 0.04207056 0.14226186 0.88514894 0.15939973 0.12423704 -1.0045768 -1.8389616
0.08857681 0.9890833 -0.1848077 -0.61386216 -0.113639526 0.58172435 0.095079705 -0.66605175
-0.20450743 0.08737436 0.15995504 0.22516263 0.39345357 0.025105426 -0.6739013 0.2625659
-0.1752661 -0.09844645 0.15389082 -0.12492618 -0.48640126 0.33158332 -0.2665414 -0.28567478
-0.2691198 -0.0026471347 0.21502851 -0.31675208 0.28204572 -0.19149563 0.15720063 0.1357429
-0.828247 0.14486226 0.34917974 0.2238463 0.5882798 0.023331512 -0.22639863 0.61238855
0.26197526 -0.25696337 0.13217749 -0.63307047 0.6338262 0.14944258 0.30651855 0.10406252
0.29812098 0.68120253 0.1379911 -0.61935663 -0.25308678 0.30265743 0.08386554 0.31908172
-0.0257021 0.48673764 -0.2168374 -0.57575774 0.15760626 0.5714691 -0.09717036 -0.75190353
0.29964736 0.41902652 0.14052744 0.47382447 0.055680074 -0.15911043 0.17679416 0.56294084
0.012363847 0.24014613 0.3161481 -1.0683147 -0.34009832 0.18936262 -0.20697415 0.26690716
0.15698121 0.24997157 0.3492039 0.24956667 0.13857101 0.20664343 0.1299188 0.16867371
0.19628897 -0.25532398 -0.581123 -0.4590985 -0.0036638388 0.32426882 0.11136424 0.38380417
-1.117739 0.25256988 -0.012343541 1.0654273 -0.030037578 -0.38817438 -0.058888163 0.12032218
0.3583339 0.4454838 0.45431158 0.027328374 0.40948537 0.2360857 -0.7883526 0.5131971
0.37258238 -0.74310845 0.16934645 0.18442647 -0.020134892 0.15210599 -0.8843841 0.18871851
0.10079035 0.110637374 0.11129555 -0.49350217 0.13209893 0.19202556 0.34912696 0.3703434
0.13327001 -1.0122014 0.05349243 0.2896952 0.3366665 -0.86075276 0.20238166 0.07541512

layers.2.bias f4 [64]
00000000: dcdd d03e 0f58 2fbd 3fde 9bbd 4ffc 263e
00000010: cdb8 e93b bd1e b9bd d42b 9cbd 6a2f 00bd
00000020: d451 a43d 2e1c 6a3e 533d 853d 0bb3 b53d
00000030: 80fe 0b3f 6bf1 edbd 8edb 793d 0035 363e
00000040: 5466 b0bd f266 58bd 5175 813d ee7c ee3d
00000050: 3333 493c 2fda 403c f06e 033e 5b9d 08bd
00000060: e4f7 fdbd 2c03 bc3e 172e b83d fd08 9c3d
00000070: 611b bcbd 347c fc3d d28e 8e3e be42 03be
00000080: 5c5c df3e 4479 4ebe 0b3e c8bd f311 973e
00000090: a12b 56bc 8778 44bd d2b8 22bd a341 8abd
000000a0: 01d4 79bd 0dce e2bd d83a 813e 7a29 603e
000000b0: 872d c0bd a00a 013f 6f04 833e 8265 a53d
000000c0: ec93 5e3e 7ae3 553c ee2a be3e e54e 51bd
000000d0: 3aaf 03bd c3b9 8ebd 930b 98bd f54a 11bc
000000e0: 8ddb 453e 77bb 283f 0326 023f 5949 d33e
000000f0: 8c3e e4ba a791 1abd 21f7 123c d5fe aa3d
0.40794265 -0.04280859 -0.076107495 0.16307186 0.0071326257 -0.09039066 -0.07625547 -0.031295218
0.0802342 0.22862312 0.06505837 0.0887204 0.5468521 -0.116183124 0.0610004 0.17793655
-0.086132675 -0.05283255 0.063212045 0.11644922 0.012280273 0.011770769 0.12835288 -0.03335319
-0.12400797 0.3672117 0.08993166 0.07618902 -0.091849096 0.12328377 0.27843338 -0.12818429
0.43625152 -0.20163447 -0.09777459 0.29505882 -0.013071925 -0.047966506 -0.03972704 -0.067508005
-0.0609932 -0.11074457 0.25240207 0.21890822 -0.09383684 0.5040684 0.2558932 0.08076002
0.21736115 0.013054723 0.37142128 -0.05110063 -0.03214953 -0.06969025 -0.074240826 -0.008867969
0.19322033 0.6591105 0.5083925 0.41266897 -0.001741366 -0.03773656 0.008970053 0.083493866

layers.4.weight f4 [4, 64]
00000000: 66aa 6c3f af9a 71bf 1942 0abf 7402 313e
00000010: 19b9 f3be 96d3 f3be 9c2a 14bf 18f4 d2be
00000020: 247a 64bf 568e 28bf 26cc febe a121 38bf
00000030: 9aaf 843f 8f07 d9be ae51 4fbf 4bf1 90be
00000040: 38a3 c0be 38be 8f3f 1b7d 3dbf f988 4abf
00000050: fbda edbe 721c 1abf c383 4e3f 2361 00bf
00000060: 5378 bebe 7f6e 433f ac1a 863e 6779 42bf
00000070: 49f2 f1be b0d1 543f b422 6d3f b9e4 08bf
00000080: dda1 963f bb38 e5be b14a febe 288b 713f
00000090: 9189 30bf 0212 bdbe 2b87 debe 367d 743f
000000a0: c8a6 d7be a082 8dbe 6104 873f a4e9 c13f
000000b0: 0311 11bf 7541 8f3f c3ad 4f3f b59a 263e
000000c0: d91f 87bf 1585 48bf f121 753f 7920 d8be
000000d0: aeaf 25bf b968 c6be 90ba e1be caea afbe
000000e0: 640f 993f 39da 973f 3183 723f 3ba0 9e3f
000000f0: dfc5 05bf 300c 05bf a73a 7d3f a2b5 2fbf
00000100: 7dee 7a3f 7345 2dbf 15c7 ffbe d007 ad3e
00000110: c3bb ebbe 929d d5be 78ed 29bf 49e1 3dbf
00000120: e56f 64bf 29ef 21bf 85ae 83be 4bb0 e8be
00000130: a869 363f 82f3 44bf 4e3d 84bf acf6 4abc
00000140: f5e2 a8be 3dc0 3f3f b7f9 07bf bee4 2fbf
00000150: c51c 9abe 82b0 17bf 1438 3e3f 83dd 16bd
00000160: 5a1a 04bf 2ed8 873f 7a05 723f 30bb acbe
00000170: 816d 1bbf d0ce a43f 027c 853f 72d0 21bf
00000180: c08b 873f 89a8 6dbf 3a0b 21bf 48c8 9a3f
00000190: 3c3e 02bf 9282 79be 3d0c 1ebf de04 c23f
000001a0: eaa3 e7be 972f 0abf b659 9f3f cd5c 8a3f
000001b0: f942 1bbf 740d 853f e3a2 82bd ddff 303f
000001c0: 5ed9 86bf 9d8a 2fbf 9799 1e3f 2651 91be
000001d0: f68f 1fbf 9820 1fbf 0c20 c6be 0a8f 09bf
000001e0: e593 d73f 8238 863f 9f92 913f 76c5 943f
000001f0: 92d4 aebe 3de7 26bf 7c6b 983f cb27 acbe
00000200: 171a 9a3f e5b9 64bf e550 1bbf 5c34 85bf
00000210: 50ca 11bf b597 ddbe 6267 19bf f04f 593f
00000220: 193e 64bf 08ff 42be 9c45 b5be bc57 65bf
00000230: 39b2 803f 8ca5 e6be ef84 7cbf 182d 79bd
00000240: 1647 13bf 290f 883f 614e 62bf 094b aebe
00000250: 6d43 90be 9ff2 22bf b6c4 063f 414e 513f
00000260: 4389 b6be 466a 8b3f de06 673f f783 0ebf
00000270: 3c9a 08bf 5254 af3f 7b79 633f bc46 0dbf
00000280: 359d 823f 9f3f 4abf 5715 e1be 986e 933f
00000290: 06b1 f0be f2ff 46bf 265d 05bf ba56 59be
000002a0: 0a95 e0be 5d00 0dbf bbc1 953f 6883 6f3f
000002b0: fb5d 10bf 7cba 8b3f 88c3 9d3f b96c ac3f
000002c0: 3a19 7e3e 31b5 20bf 0f28 8e3f 1a2d 01bf
000002d0: 80b1 19bf cc71 bfbe 6414 0bbf 77ec d8be
000002e0: 005d 6a3f 7070 783f ed73 3a3f 9927 803f
000002f0: 4479 20bf 931c 11bf bdd3 b63f 42f5 d1bc
00000300: 392c a13f b735 4bbf ad10 0dbf 0ba2 3c3f
00000310: 5054 e1be 3fda dabe c7be 07bf 6bf3 13bf
00000320: 7b61 43bf 014a dfbf 6ac4 febe e0ec 49bf
00000330: c493 923f 905c 2dbf 41d3 22bf cb11 0bbf
00000340: ed3c debe a7ef 843f ab60 65bf 690a a8be
00000350: b2ab 42bf d3d8 09bf 4297 c83e f1e8 26bf
00000360: 9c19 22bf 31a9 673f 12c6 ae3e 5a02 18bf
00000370: f8fb f9be e94b 763f 8e91 953f 0569 4ebf
00000380: 9f4f 713f eb84 6abe 5edd bfbe ad1e 723f
00000390: 2626 d1be 0460 eebe 6d5b f7be 7567 2f3f
000003a0: e2d8 f6be 3526 20bf 9fc0 833f 7db4 d23f
000003b0: f4e2 f1be 41d1 793f 7f46 a83f e7b7 07bf
000003c0: 37a9 e9be dede 26bf 6b20 893f dba2 03bf
000003d0: 8351 b8be c78f d7be f577 0ebf bba8 febe
000003e0: 6618 3b3f acc4 903f 4627 8c3f beef 833f
000003f0: f7ff e4be 628d adbe 7855 49be 9390 5ebf
0.9244751 -0.94376653 -0.54007107 0.17286092 -0.47602156 -0.47622365 -0.57877517 -0.41201854
-0.8924887 -0.6584219 -0.49765128 -0.71926314 1.0366089 -0.4238858 -0.8098401 -0.28309092
-0.37624526 1.1229925 -0.7401902 -0.79115254 -0.4645613 -0.60199654 0.806698 -0.5014822
-0.37201175 0.7634048 0.26192224 -0.75966495 -0.4725516 0.8313246 0.9263108 -0.53474003
1.1768147 -0.44769844 -0.4966636 0.9435296 -0.6895991 -0.369278 -0.434625 0.95503557
-0.42119431 -0.2763872 1.0548211 1.5149426 -0.5666658 1.1191851 0.81124514 0.16269954
-1.0556594 -0.7832807 0.95754915 -0.42212275 -0.6472119 -0.38751772 -0.44087648 -0.34358817
1.1957822 1.1863471 0.9473143 1.2392648 -0.5225505 -0.5197172 0.9891762 -0.68636525
0.98020154 -0.67684096 -0.49956575 0.33795023 -0.46041688 -0.4172178 -0.66377974 -0.7417188
-0.8923324 -0.63255554 -0.25719085 -0.45447 0.7125497 -0.76934063 -1.0331209 -0.012387913
-0.32985654 0.7490271 -0.5311541 -0.6870841 -0.30100074 -0.59253705 0.7430432 -0.036832344
-0.5160271 1.0612848 0.94539607 -0.33736563 -0.60713965 1.2875614 1.0428469 -0.6320869
1.0589523 -0.9283529 -0.62907755 1.2092371 -0.5087621 -0.24366215 -0.61737424 1.5157735
-0.45242244 -0.53978866 1.2449253 1.080957 -0.6064907 1.039473 -0.063787244 0.69140416
-1.0535085 -0.6857088 0.6195311 -0.28382224 -0.6232904 -0.6215911 -0.38696325 -0.53733885
1.6842009 1.0485995 1.137287 1.162276 -0.34146553 -0.6519659 1.1907802 -0.3362411
1.2039212 -0.8934615 -0.6067031 -1.0406604 -0.5694933 -0.43279806 -0.59923375 0.848876
-0.89157254 -0.19042599 -0.3540467 -0.89587 1.0054389 -0.45048177 -0.9864034 -0.06083402
-0.57530344 1.0629627 -0.88400847 -0.34041622 -0.28176442 -0.6365146 0.5264391 0.8176003
-0.35651597 1.0891807 0.90244853 -0.5567011 -0.5336034 1.3697608 0.8885724 -0.5518606
1.0204226 -0.7900333 -0.43961594 1.1518126 -0.47010058 -0.7773429 -0.5209526 -0.2122449
-0.43863708 -0.5507868 1.1699747 0.93559885 -0.563934 1.0916286 1.2325296 1.347068
0.2481431 -0.62776476 1.1105975 -0.50459445 -0.6003647 -0.37391508 -0.5432799 -0.42367908
0.91548157 0.97046566 0.7283314 1.0012084 -0.62685037 -0.56684226 1.4283367 -0.025629643
1.2591621 -0.7937884 -0.5510357 0.7368476 -0.44009638 -0.42744634 -0.5302548 -0.577933
-0.7632062 -1.7444459 -0.49759227 -0.7887707 1.1451344 -0.67719364 -0.636036 -0.54324025
-0.43405858 1.0385636 -0.8960063 -0.32820442 -0.76043236 -0.5384647 0.391779 -0.6519919
-0.63320327 0.9049254 0.3413549 -0.5937859 -0.4882505 0.9620958 1.1685045 -0.80629
0.9426212 -0.22902267 -0.37473577 0.9457806 -0.40849417 -0.4655763 -0.4831194 0.6851724
-0.48212343 -0.625583 1.0293158 1.6461331 -0.47243464 0.9758492 1.3146514 -0.5301499
-0.45636913 -0.6518382 1.0713018 -0.5142037 -0.35999689 -0.4210188 -0.5565179 -0.49738106
0.73084104 1.131002 1.0949485 1.0307539 -0.44726536 -0.3389693 -0.1966151 -0.8693935

layers.4.bias f4 [4]
00000000: 8ce5 483c 88da 753e b702 263e 31b4 c13d
0.0122617595 0.24009144 0.16211973 0.09458197
