saved_models/DQN_episode_2103.pth (torch, 4706 bytes, 6 tensors)

layers.0.weight f4 [16, 8]
0	0x3f572b8b	0.84050816
1	0xbf56ad6b	-0.83858365
2	0x3e6b906e	0.23004314
3	0x3e624550	0.22096753
4	0xbf2a131d	-0.66435415
5	0x3ebb4782	0.36577994
6	0x3e084851	0.13308837
7	0x3cce096e	0.02515098
8	0xbee26bee	-0.4422297
9	0xbecada88	-0.3961985
10	0xbf8b48be	-1.0881574
11	0xbf6430a2	-0.8913671
12	0xbdd36eb1	-0.10323847
13	0xbede59ea	-0.43427974
14	0xbe55f867	-0.20895539
15	0xbe2bd7f2	-0.16781595
16	0x3fb7d3ca	1.4361508
17	0x3f5995c0	0.84994125
18	0x3f3f0e03	0.74630755
19	0x3f17efb0	0.5935011
20	0x3f18513f	0.5949897
21	0x3ed17ed9	0.4091709
22	0xbd09a26e	-0.03360217
23	0xbca30c5d	-0.019903356
24	0x3f213ab7	0.62980217
25	0xbedd58cb	-0.43231806
26	0x3e70f3eb	0.23530547
27	0xbf91dba5	-1.1395155
28	0xbf1d6803	-0.61486834
29	0xbe6d5fc3	-0.23181061
30	0x3d7c536a	0.061602987
31	0x3ea7f37f	0.3280296
32	0x3fa627c1	1.2980882
33	0x3e1181c4	0.14209658
34	0xbda3e6ea	-0.08003028
35	0x3dfd2e94	0.123624
36	0xbf7dc153	-0.99123114
37	0xbe9fe3e8	-0.31228566
38	0xbc4ad09e	-0.01237884
39	0xbe221c5c	-0.1583113
40	0x3ea3e4ec	0.3201059
41	0xbd2a542f	-0.04158419
42	0x3e8c3aa0	0.27388477
43	0x3d88e208	0.06683737
44	0xbecb0874	-0.39654887
45	0xbf73b6fa	-0.95201075
46	0xbf4e8070	-0.8066473
47	0xbdcfb384	-0.10141662
48	0xbd4cf63c	-0.050039515
49	0x3d3164b1	0.043308917
50	0x3defb767	0.11704903
51	0x3eb52ffb	0.3538817
52	0x3fc5c0ab	1.5449423
53	0xbe159cb1	-0.14610554
54	0xbe1a50cd	-0.15069886
55	0xbfc45e5b	-1.5341295
56	0xbd15c931	-0.036568824
57	0x3f8d1037	1.1020573
58	0x3f1e224f	0.617711
59	0x3e49ec6d	0.19719096
60	0xbe998049	-0.29980686
61	0xbdc71d44	-0.09722379
62	0xbde3d179	-0.11123938
63	0xbe7eab5b	-0.24870054
64	0xbf6a92bf	-0.91630167
65	0x3e968465	0.29397884
66	0xbf169f98	-0.5883727
67	0x3ef35163	0.4752303
68	0x3f901020	1.1254921
69	0x3f10fc41	0.5663491
70	0xbc0150b6	-0.007892778
71	0xbefae497	-0.49002525
72	0xbd7068a4	-0.058693543
73	0x3d85a6a2	0.06525923
74	0x3ef33a46	0.47505397
75	0x3f51631d	0.8179186
76	0xbf058be9	-0.5216661
77	0xbf6acd8f	-0.9171991
78	0xbe224efc	-0.15850443
79	0x3f583673	0.8445808
80	0x3f8f401f	1.1191443
81	0x3f3000c7	0.68751186
82	0x3fa4876d	1.2853829
83	0xbf95f177	-1.1714314
84	0xbf9086d1	-1.1291143
85	0xbf104a77	-0.56363624
86	0xbdc6cb07	-0.09706693
87	0xbedfdedb	-0.43724713
88	0x3ecbd62c	0.39811838
89	0xbd989ad4	-0.07451406
90	0xbe83315c	-0.25623596
91	0xbfab025f	-1.3360099
92	0x3e4017ca	0.18759075
93	0xbf7f0f49	-0.996327
94	0xbee652d8	-0.4498508
95	0x3e8dc8b2	0.2769218
96	0xbeb0d43b	-0.3453692
97	0xbdb25667	-0.08707886
98	0xbed50945	-0.41608635
99	0x3c013883	0.007887009
100	0xbfa45368	-1.2837954
101	0xbeea7856	-0.45794934
102	0x3bb716fb	0.0055874563
103	0x3e57226b	0.21009223
104	0x3f2b5567	0.6692719
105	0x3d1e4a22	0.038644917
106	0xbf8e5cd4	-1.1122079
107	0x3f72a0c5	0.94776565
108	0xbe394f71	-0.1809671
109	0xbe98397f	-0.29731366
110	0xbe314c79	-0.17314328
111	0xbe39369f	-0.18087243
112	0x3fa54de1	1.2914392
113	0x3ed94f28	0.42443204
114	0x3e85e2b5	0.26149526
115	0xbf2f6516	-0.6851362
116	0xbf2ec433	-0.68268126
117	0xbe7481ef	-0.2387769
118	0xbd64b903	-0.055840503
119	0x3e6c89f1	0.23099495
120	0xbe3221f8	-0.1739577
121	0xbf102157	-0.5630087
122	0x3dd3a4e9	0.103341885
123	0xbedbcb8e	-0.42928737
124	0x3f1649a7	0.58706135
125	0x3fbf04c0	1.4923325
126	0x3e9e9bd0	0.3097825
127	0x3f12a88a	0.5728842

layers.0.bias f4 [16]
0	0x3f7feb56	0.9996847
1	0xbe2d7776	-0.16940102
2	0xbec76511	-0.38944295
3	0xbf07aeb5	-0.53000957
4	0x3d974a9c	0.073872775
5	0xbe4373f3	-0.190872
6	0xbcb83b1a	-0.02248912
7	0xbebac3c0	-0.3647747
8	0x3ee8fc7e	0.45505136
9	0x3eb88465	0.3603851
10	0x3e6eec8c	0.23332423
11	0x3f069d42	0.52583706
12	0xbd713df5	-0.058896977
13	0xbe876621	-0.26445106
14	0x3f46a6dd	0.77598363
15	0x3b920048	0.0044556

layers.2.weight f4 [16, 16]
0	0x3f959395	1.1685663
1	0xc017603f	-2.3652494
2	0xbf90983d	-1.129646
3	0xc0058d6f	-2.0867574
4	0xbf814dd4	-1.0101876
5	0xc0591dfa	-3.3924546
6	0x400903f1	2.1408656
7	0x401c44c6	2.4416976
8	0xbf8a2607	-1.0792855
9	0xbfb6ede1	-1.4291345
10	0x3e50aefa	0.20379248
11	0xbd7c38e0	-0.061577678
12	0x3fe59e11	1.7938863
13	0x40135134	2.3018312
14	0x3f90376b	1.1266912
15	0x3dfeed87	0.124476485
16	0x3ff0d7ba	1.8815835
17	0xbfdbeefd	-1.7182308
18	0xc080af86	-4.021426
19	0xc00cb17a	-2.1983323
20	0xc019b602	-2.4017339
21	0xbf7ff27a	-0.99979365
22	0x3fb5c9be	1.4202192
23	0x3ff7657d	1.9327847
24	0xbf98755e	-1.1910818
25	0x3ed889a9	0.42292526
26	0xbf8be764	-1.092999
27	0x3ffb1a75	1.9617449
28	0x3e8afb16	0.27144688
29	0x3e22304b	0.15838735
30	0x3f58c389	0.8467336
31	0x3f9accc7	1.2093743
32	0x3fa0cf3a	1.256324
33	0xc03910e3	-2.8916557
34	0xbf18aa9b	-0.59635323
35	0xc0207316	-2.5070243
36	0xbf833681	-1.0251008
37	0xc063154d	-3.548175
38	0x40168ac5	2.3522198
39	0x4004483d	2.066909
40	0xbf0cdfcd	-0.5502899
41	0xbfa3cd71	-1.2797071
42	0xbee79e9a	-0.4523819
43	0x3f6d99ca	0.9281279
44	0x4001f023	2.0302818
45	0x4013cc17	2.3093317
46	0x3fadd710	1.3581257
47	0xbe97c6e3	-0.29643926
48	0xbf0381c2	-0.5136987
49	0xbfbec3bf	-1.4903487
50	0x3f539739	0.8265262
51	0x3faf3a8c	1.3689742
52	0x3feb1590	1.8365955
53	0xbf397b37	-0.72453636
54	0xc05940b5	-3.3945744
55	0xbfb620bc	-1.422874
56	0x3faaf025	1.3354536
57	0x3fecbff2	1.8496077
58	0x3f52f714	0.8240826
59	0xbf06ac02	-0.52606213
60	0xc049a648	-3.150774
61	0xbfa950c7	-1.3227776
62	0xbd08b088	-0.03337148
63	0x3e81aaa5	0.25325504
64	0x3fd6def8	1.6786795
65	0xbfadb08e	-1.3569505
66	0xbf966676	-1.1750019
67	0xbfdeb798	-1.7399778
68	0xbedde122	-0.43335825
69	0xbe7fcc21	-0.24980213
70	0x4022a514	2.5413256
71	0x4025ea56	2.5924277
72	0xbfe0625b	-1.7530016
73	0xbebec12d	-0.37256756
74	0x3ea9d10b	0.331673
75	0x3f20f514	0.6287396
76	0x3f3569ee	0.7086476
77	0x401e7f69	2.4765265
78	0x3f8cbdcb	1.099542
79	0xbdea0904	-0.11427501
80	0xbf447f61	-0.76756865
81	0x3fdfd9c6	1.7488334
82	0x3fac689d	1.3469425
83	0x400c738e	2.194553
84	0x3fbec7f0	1.4904766
85	0x3f89a4db	1.0753435
86	0xbfc53483	-1.540665
87	0xbfca51b3	-1.5806183
88	0x3fb670fb	1.4253229
89	0x3f634a9b	0.88785714
90	0x3f343983	0.70400256
91	0xbe8d5090	-0.27600527
92	0xbeaa95c0	-0.33317375
93	0xbf82ebb1	-1.0228177
94	0xbee27523	-0.44229993
95	0x3f8b9f74	1.0908036
96	0xbd421db2	-0.0473916
97	0x3e4066d3	0.18789224
98	0x3f4fb3b6	0.8113359
99	0x3fbf11e5	1.4927336
100	0x3fa1ac1c	1.2630649
101	0x3f5db7d4	0.86608624
102	0xbf925368	-1.1431704
103	0xbf7284c9	-0.94733864
104	0x3f9a4475	1.2052141
105	0x3fc9909d	1.5747257
106	0x3f54c032	0.83105767
107	0xbf2edf0b	-0.68309087
108	0xbf150ecf	-0.5822572
109	0xbf1dc6dc	-0.6163156
110	0xbf101456	-0.5628103
111	0x3ec08ec2	0.37608916
112	0x3fac6200	1.3467407
113	0xc035b699	-2.8392699
114	0xbf278847	-0.6544232
115	0xc0223e8b	-2.5350673
116	0xbf70ee9f	-0.94114107
117	0xc02faa3d	-2.7447655
118	0x4015f2f1	2.342953
119	0x4014ee2a	2.3270364
120	0xbf23c989	-0.63979393
121	0xbf8ec07f	-1.1152495
122	0xbe9525c5	-0.29130378
123	0x3f80ad90	1.0052967
124	0x3fc2e1c2	1.5225146
125	0x40178363	2.3673942
126	0x3fa85101	1.314972
127	0xbeae9818	-0.34100413
128	0x3faa748e	1.331682
129	0xc0377c86	-2.8669753
130	0xbf226f09	-0.63450676
131	0xc01a0875	-2.4067662
132	0xbf5e4c95	-0.86835605
133	0xc01b7210	-2.4288368
134	0x40142da0	2.3152847
135	0x4015d938	2.341383
136	0xbf3483cc	-0.70513606
137	0xbf8d940e	-1.1060808
138	0xbe6166f9	-0.22011937
139	0x3f935d85	1.1512915
140	0x3fae9635	1.363959
141	0x40113a8f	2.2691991
142	0x3fa9f97e	1.3279264
143	0xbece19b5	-0.40253988
144	0xbf36f8c2	-0.71473324
145	0x3ce9c8e5	0.028538177
146	0x3fb0d8e2	1.3816187
147	0x401e62ea	2.4747872
148	0x3faaa087	1.3330239
149	0x3e8f2542	0.27958113
150	0xc00e4bc7	-2.223375
151	0xbfe37c51	-1.7772313
152	0x3f94ef4e	1.163553
153	0x3ef1b947	0.47211668
154	0x3f1e5a60	0.6185665
155	0x3c45387b	0.012037392
156	0xbfc0a530	-1.5050411
157	0xbfea3ed3	-1.8300422
158	0xbe852614	-0.26005614
159	0x3face073	1.3505996
160	0x3ffbe4fb	1.9679254
161	0xbffe693f	-1.9875869
162	0x3e75f56f	0.24019407
163	0xbf97a27f	-1.1846465
164	0xbf655fd9	-0.89599377
165	0xbfe64516	-1.7989833
166	0x3fa0a5c0	1.2550583
167	0x4087245e	4.2231894
168	0xbf5e887d	-0.86927015
169	0xbe185f31	-0.14880063
170	0xc05bab1c	-3.4323187
171	0xbf38b232	-0.72146904
172	0xbeebeae8	-0.46077657
173	0x4016b396	2.354711
174	0x3f36cf01	0.7140961
175	0xbe2fae31	-0.17156292
176	0xbea856a8	-0.32878613
177	0x3fe1ef78	1.7651205
178	0x3f96d089	1.178239
179	0x3fcaea26	1.5852706
180	0x3f6ed8b7	0.9329943
181	0x3f432bdc	0.762388
182	0xc00e31fc	-2.2218008
183	0xc0174439	-2.363539
184	0x4010c70d	2.262149
185	0x3f9a2a4e	1.204416
186	0x3f2d772f	0.67759985
187	0xbe7e70d5	-0.2484773
188	0xbf319e3f	-0.6938209
189	0xbf4ef0e0	-0.80836296
190	0xbf23e56b	-0.6402194
191	0x3f45499b	0.7706544
192	0xbf8180b1	-1.0117399
193	0x3fdbb78c	1.7165389
194	0x3f83e195	1.0303217
195	0x40050389	2.0783408
196	0x3fae533e	1.3619153
197	0x3f54dbfb	0.83148164
198	0xc0343ed0	-2.8163338
199	0xc010fbda	-2.2653718
200	0x3fec64bd	1.8468243
201	0x3f5b238e	0.8560113
202	0x3f57a6fd	0.8423918
203	0x3e91eb3f	0.2849979
204	0xbeb2efa1	-0.34948447
205	0xbfe9e425	-1.8272749
206	0xbed24841	-0.4107075
207	0x3f2e6885	0.68128234
208	0x3fbc6c31	1.4720517
209	0xc03f7fd5	-2.9921772
210	0xbf3404b9	-0.70319706
211	0xc01ce37b	-2.4513843
212	0xbf6e6d11	-0.9313517
213	0xc01efbbe	-2.4841151
214	0x40172b2f	2.3620107
215	0x402c43e1	2.691643
216	0xbf136e88	-0.5759053
217	0xbf662fa3	-0.8991644
218	0xbe45fa04	-0.19333655
219	0x3f82834e	1.0196321
220	0x3fad2148	1.3525782
221	0x4015b552	2.339192
222	0x3fa6fe10	1.3046284
223	0xbeb9c15a	-0.36280328
224	0xbee7a2b8	-0.45241332
225	0x3fec3f61	1.8456842
226	0x3f5951a3	0.8489019
227	0x4000134b	2.0011775
228	0x3fa5bf76	1.2949054
229	0x3fabb583	1.3414768
230	0xbfa6a026	-1.3017623
231	0xbffc6356	-1.9717815
232	0x3fc49705	1.5358588
233	0x3faf7459	1.3707381
234	0x3f786b9d	0.97039205
235	0xbf001eae	-0.50046813
236	0xbf011b05	-0.50431854
237	0xbfca221e	-1.5791662
238	0xbee82d7c	-0.45347202
239	0x3f6d97cb	0.9280974
240	0xbf07b692	-0.53012955
241	0x3fc7209d	1.5556828
242	0x3f2c24ae	0.6724347
243	0x3ff1c779	1.8888999
244	0x3faa7e3b	1.3319772
245	0x3f994ef7	1.1977223
246	0xbfbfa651	-1.4972631
247	0xbff870c6	-1.9409416
248	0x3fa7814b	1.3086332
249	0x3fab9b9d	1.3406864
250	0x3f6beffe	0.92163074
251	0xbe0079fe	-0.12546536
252	0xbf1e6cf5	-0.61885005
253	0xbf9dfe7f	-1.2343291
254	0xbf131131	-0.57448107
255	0x3f5bdab4	0.8588059

layers.2.bias f4 [16]
0	0x3f89f37e	1.0777433
1	0x3f9441ff	1.158264
2	0x3fa876ba	1.3161232
3	0x3e14e15b	0.14539091
4	0x3f837c63	1.0272335
5	0xbedd0b27	-0.4317257
6	0xbd3639c7	-0.044488695
7	0x3fa38c5c	1.2777209
8	0x3f9f3aa3	1.243977
9	0xbf05d9fa	-0.5228573
10	0x3e97d9a6	0.2965824
11	0xbb97b7bc	-0.004630057
12	0x3d118d40	0.035535097
13	0x3fa3e97b	1.2805628
14	0x3d5e49e0	0.05426967
15	0xba2620d9	-0.0006337292

layers.4.weight f4 [4, 16]
0	0x40496e26	3.147348
1	0x405c0776	3.4379554
2	0x4008e828	2.1391697
3	0xc003719e	-2.0538096
4	0x3fd09dbd	1.6298138
5	0xc055cf27	-3.3407686
6	0xbf5a67f0	-0.85314846
7	0x3ffc849e	1.9727972
8	0x3fe5e878	1.7961569
9	0xc0a174e8	-5.045521
10	0x40851d61	4.1598363
11	0xc0030471	-2.047146
12	0xc0983c3b	-4.7573524
13	0x3ffff7f8	1.9997549
14	0xbfe57809	-1.7927257
15	0xc0322edf	-2.7841108
16	0x4060c7e5	3.5122006
17	0x407c717c	3.9444265
18	0x3fc014f5	1.5006396
19	0xc02c2ee9	-2.6903632
20	0x400a8853	2.1645706
21	0xc04397e7	-3.0561464
22	0xbf92c65f	-1.1466788
23	0x3fef1228	1.8677416
24	0x3ffb6738	1.9640875
25	0xc05b2538	-3.4241467
26	0x406c7865	3.6948483
27	0xc024e5a0	-2.5765152
28	0xc05318e1	-3.2983935
29	0x4004c657	2.0746057
30	0xc048877c	-3.1332693
31	0xc007f406	-2.124269
32	0x406038be	3.5034633
33	0x407adbee	3.9196734
34	0x40146b51	2.31905
35	0xc071f869	-3.7807868
36	0x3fc24a6b	1.517896
37	0xc00968f8	-2.1470318
38	0xc021e146	-2.5293746
39	0x40058c68	2.0866947
40	0x3fffa1b5	1.9971224
41	0xc01919a0	-2.392189
42	0x408c1a11	4.378182
43	0xc067b15f	-3.6202009
44	0xc007de2a	-2.1229348
45	0x3fef4b20	1.8694801
46	0xc00ead71	-2.229336
47	0xc01cd511	-2.4505045
48	0x40346f0f	2.8192785
49	0x40671e67	3.6112306
50	0x401a5c59	2.4118865
51	0xc00da8c6	-2.213426
52	0x3f5746b5	0.84092265
53	0xc059af3c	-3.4013205
54	0xc020f885	-2.5151684
55	0x400f9f8c	2.244113
56	0x400efbc4	2.2341166
57	0xc04cc7a9	-3.1996863
58	0x40997dfd	4.7966294
59	0xbfd54cb3	-1.6664032
60	0xc015eaa0	-2.3424454
61	0x4007cd1e	2.1218944
62	0xc0644701	-3.5668337
63	0xc03e7ec2	-2.9764867

layers.4.bias f4 [4]
0	0x3f97863d	1.1837841
1	0xbf18212e	-0.5942563
2	0x3ef3d965	0.47626796
3	0x3f753b10	0.9579325
