checkpoint.pth (torch, 22566 bytes, 6 tensors)

fc1.weight f4 [64, 8]
000000 2f f1 b0 be 9a 28 e2 3c c8 41 0f bf 73 fc 19 be
       -0.34559008 0.027607251 -0.5595975 -0.15037708
000010 14 cf 1d 3f 90 2f bf 3e 40 86 b3 3c 38 25 1c 3f
       0.616441 0.37340975 0.021914601 0.6099429
000020 1f 20 cc bd db 02 1f bc e7 c3 2c be 71 0b 69 be
       -0.09967064 -0.009705271 -0.16871606 -0.22758271
000030 b5 9a e2 be 3d b1 8a bf 0c 94 6b bf 18 82 7b 3d
       -0.44258657 -1.0835339 -0.92022777 0.061403364
000040 50 41 f2 bd 2b 32 9c 3e c7 e2 03 bf 1a 52 a6 be
       -0.118288636 0.30507025 -0.5151791 -0.32484514
000050 c4 7b 68 3f 89 47 f7 3e 14 d2 a0 be 7b 94 e7 3e
       0.9081385 0.48296764 -0.31410277 0.4523047
000060 52 8a 46 be 95 27 ba be 58 ea 6d 3f 57 ec 85 be
       -0.19388703 -0.36358324 0.92935705 -0.26156875
000070 ab fa 8b bf e2 2f b7 be 55 31 9c bd b0 70 c9 3e
       -1.0935873 -0.3577872 -0.07626597 0.39343786
000080 8d d3 02 bf b8 8f 8a bf 88 3f 82 3d b3 2d 88 bf
       -0.5110405 -1.082511 0.06359774 -1.0638946
000090 79 b2 f3 3b 32 d1 2f bc 51 62 1d 3e 3f 1c d0 3e
       0.007437047 -0.010731028 0.15369536 0.4064655
0000a0 61 2b 35 3d b1 d0 a4 be 9c 1a c8 3e 14 0d aa be
       0.044230822 -0.3219047 0.390828 -0.33213103
0000b0 39 a0 e2 be 7a c2 0f bf dc 89 96 3e d6 82 c2 3e
       -0.44262865 -0.5615612 0.29402053 0.37990445
0000c0 ae cd c8 be 95 0a fd bd dd 5b 91 3b d0 b5 1d be
       -0.3921942 -0.12355534 0.004436 -0.15401387
0000d0 27 9d 3d 3f f0 c8 3e 3f 1b 9d c8 3d db 67 62 bf
       0.7406792 0.74525356 0.097955905 -0.8843972
0000e0 af f0 10 3e 7a 44 2b bf a5 0c 39 be ab 85 6d bf
       0.14154314 -0.6690136 -0.1807123 -0.92782086
0000f0 20 c2 01 3f 61 6b 0a bc cb fc 11 bc 55 7a c0 3e
       0.50686836 -0.008448453 -0.008910368 0.37593332
000100 31 94 04 be 14 80 45 c0 ce cc 9c be 40 27 56 be
       -0.12947156 -3.0859423 -0.30625004 -0.2091341
000110 c3 ad 64 3e 47 6f 91 3f 24 bd c9 3c 31 f7 18 3f
       0.2233191 1.1362084 0.024626322 0.59752184
000120 42 b0 6c be b2 c3 57 3f db 8c 9a 3d 0a 5b c1 3f
       -0.23114112 0.8428298 0.07546397 1.5105908
000130 4a 51 54 be 0d 6d 41 be 08 3e 07 be 69 fe 99 bd
       -0.20734134 -0.18889256 -0.13207257 -0.07519228
000140 2f 37 46 bf b1 0a 4b 3f 0c f1 9d 3e ae ca 87 bf
       -0.77427953 0.7931319 0.30847967 -1.0608728
000150 41 95 ac 3e 80 be 23 3d 94 02 98 3d 4c ef 5e bd
       0.33707622 0.039976597 0.07422367 -0.05442743
000160 71 44 84 3f 4f 82 d1 be 4d 5c 73 3f 02 23 07 bf
       1.0333387 -0.4091973 0.95062715 -0.5278779
000170 dc eb 13 3e 5d eb 3e 3e 03 41 ce bc af 06 c0 be
       0.14445442 0.18644471 -0.025177484 -0.375051
000180 b4 db 54 3e f5 f6 ab 3d 7e 06 84 be 71 be 1d 3c
       0.20786935 0.08396713 -0.25786203 0.009627924
000190 76 2e f6 3f 66 b0 7a 3e bd 7f 52 3d 25 a3 a6 3e
       1.9232929 0.24481353 0.051391352 0.32546344
0001a0 0e 1e 27 bf 85 a1 22 bf ef c3 51 bf 03 95 5b bf
       -0.65280235 -0.6352771 -0.81939596 -0.8577425
0001b0 40 5d aa 3e 87 ad 1a 3f d9 89 ff 3d 08 f4 89 3e
       0.3327427 0.6042103 0.12477464 0.26943994
0001c0 4c 68 ea be 96 16 10 3f 1b 8c 4f 3f 98 c8 93 bf
       -0.45782697 0.56284463 0.8107316 -1.1545591
0001d0 bd e1 2f bf 91 bd 08 be 41 0c 56 bd 60 5b e9 3d
       -0.68703824 -0.13353564 -0.05225778 0.113943815
0001e0 3e f3 b8 3e 53 4b fa bd 46 e9 06 be 98 85 24 be
       0.3612308 -0.12221398 -0.13174924 -0.16066587
0001f0 d2 ec c5 be 88 38 43 bf 51 69 6d bf 3d 1c 20 3e
       -0.38657242 -0.76258135 -0.92738825 0.15635772
000200 8b 04 9c ba 7c c2 26 be 27 2e 24 3f 5c 2a f0 bd
       -0.0011903209 -0.16285127 0.6413292 -0.117268294
000210 80 c8 05 bf ad 9b 72 be 9d ee 9b 3e b6 ab 43 3e
       -0.52259064 -0.23692198 0.30455485 0.19108471
000220 f1 75 69 be 8e 89 81 3d e6 3d bf 3c ee 7c 3b 3f
       -0.22798897 0.063250646 0.023344945 0.732375
000230 1d 32 32 3f d0 df 12 3f e9 ca 1b 3f 6a 93 06 be
       0.69607717 0.5737276 0.6085649 -0.13142172
000240 9a cf b3 be cf 0e ff 3e c5 2f a4 3e cc af be be
       -0.35119325 0.49815986 0.32067695 -0.37243497
000250 01 26 e1 3d 7e f0 40 bf a2 5f 8b be 02 9b d3 be
       0.10993577 -0.7536696 -0.272214 -0.413292
000260 14 b3 c3 bd 06 1b 6a 3e 68 fc 2e 3f 15 9b d0 bf
       -0.09555641 0.22861871 0.6835389 -1.6297327
000270 7b 89 6d 3f b9 44 26 bf 2a ac 81 3d fc f9 80 3d
       0.92787904 -0.6494861 0.06331666 0.06297681
000280 10 6f 98 be 28 ec 91 bf fd e4 43 be f7 dc 86 bf
       -0.29772234 -1.1400194 -0.19130321 -1.0536183
000290 72 22 e3 bd 0a b8 02 3f c1 30 b5 3c c8 f6 29 3e
       -0.11090554 0.5106207 0.022117974 0.16598046
0002a0 35 74 f3 be ad bb 35 bf ae 84 08 bf b8 7e 61 bf
       -0.47549596 -0.70989496 -0.53327453 -0.8808398
0002b0 13 d4 5d 3f bf 76 10 3f 35 55 4c 3c 62 e3 86 3e
       0.86651725 0.5643119 0.012471487 0.26345354
0002c0 b7 69 61 3d 4e 36 6a bf ef f9 64 3f d6 26 58 bf
       0.05503246 -0.9148911 0.8944387 -0.8443426
0002d0 65 29 00 bf fa 28 7a be e6 10 b1 3d c9 80 e2 3d
       -0.50063163 -0.24429694 0.08645801 0.1105972
0002e0 dc 47 29 3d 9d bf 4e be a6 3f 9d 3e c5 6f 7f be
       0.041328296 -0.20190282 0.30712622 -0.2494498
0002f0 f0 cf dc be 71 eb e7 be e9 1b 8c 3e dd 2b ed 3e
       -0.43127394 -0.45296815 0.27365044 0.46322528
000300 34 22 50 bf 84 77 03 bf ca b9 0f bf 57 13 32 bf
       -0.8130219 -0.5135424 -0.56142867 -0.6956076
000310 54 be b9 3e f4 96 93 3e 12 a6 18 bd f9 a6 7b 3e
       0.3627802 0.28826106 -0.037267752 0.24575414
000320 30 01 41 be 27 2c 64 3e bf 90 89 3d e9 af a0 3e
       -0.18848109 0.22282468 0.06717061 0.3138421
000330 06 a0 37 3f 78 4d 8e 3f 0e d0 f7 3d 53 82 fb 3e
       0.7172855 1.1117392 0.1210023 0.49122867
000340 6f a1 0c be 35 81 b8 be db ec de 3d 1c 18 17 bf
       -0.13733457 -0.36036077 0.1088502 -0.59021163
000350 7a 8f be bd 0b 2d 83 be 44 d5 36 bd ce 22 90 3e
       -0.0930471 -0.25620303 -0.04463698 0.28151554
000360 ab 85 da 3d 38 bb 73 be 5a 9c e3 3e 8f c8 60 bf
       0.106700264 -0.23801887 0.44455224 -0.8780603
000370 30 a3 e7 3e 1a 2e bb 3e b7 9d 28 3d ee 10 9d 3d
       0.4524169 0.3655861 0.041166034 0.07669245
000380 43 4d 88 bf 8e d3 5d be bb 11 dc be 23 3e 5b bd
       -1.0648578 -0.21662733 -0.42982277 -0.053526055
000390 6c e7 c3 be 63 ec cd bd 67 43 fc bd 34 19 aa 3e
       -0.38262498 -0.10054853 -0.123175435 0.33222353
0003a0 79 6d 19 bd 12 06 01 be e2 ce a5 3f f4 60 8b bf
       -0.037457917 -0.12599972 1.2953761 -1.0888963
0003b0 05 ab 2b 3f 4e eb 01 bf 35 03 3a 3d c8 c6 77 3e
       0.6705783 -0.5074967 0.045413215 0.24196923
0003c0 c9 61 0f 3e c4 4f 6b 3d c7 3c 21 bd f9 ba 1b 3d
       0.14002146 0.057449117 -0.039364602 0.038020108
0003d0 24 f5 38 be dc 5d a0 bf 16 8f e8 3e 64 d9 89 3d
       -0.18062264 -1.2528644 0.45421666 0.06730917
0003e0 48 ed 9d 3c 45 a1 92 bd cb 8c 3d 3d 38 60 f6 bd
       0.019278184 -0.07159666 0.04627685 -0.12030071
0003f0 89 57 10 40 86 c3 15 be 7a ff 17 be f9 96 bd 3c
       2.2553427 -0.14625368 -0.1484355 0.023143278

fc1.bias f4 [64]
000000 27 93 91 be 6b 61 ad bd 7c 35 9b 3d 2c 1c a6 be
       -0.2843258 -0.08465847 0.07578561 -0.32443368
000010 a1 3b 67 be fb 68 03 be ed fd b1 3e 4a 16 01 be
       -0.2258134 -0.12833016 0.34764042 -0.12606159
000020 4f 92 52 3e 82 45 a1 3e e6 c4 c5 3e 56 2c 1c bd
       0.20563625 0.31498343 0.38626784 -0.03812822
000030 32 e4 b2 bd 41 24 df be a8 cc 88 3e 3c 8e 80 3e
       -0.08734931 -0.43582347 0.2671864 0.25108516
000040 80 38 8b 3d 0d 67 8e be 7a 97 4f 3f fb 59 cc 3c
       0.06797886 -0.27812997 0.8109051 0.02494525
000050 76 eb 5b be 82 62 9c be 80 1a e4 be 42 97 12 be
       -0.2147654 -0.30543905 -0.44551468 -0.14315513
000060 f2 ff 76 be 83 9d e2 be 25 84 80 bd 51 80 9a 3e
       -0.24121073 -0.44260797 -0.062752046 0.30176023
000070 8f dd e9 be 17 4f 35 bc 9c 05 54 be 7b 78 22 bc
       -0.45676848 -0.01106622 -0.20705265 -0.00991642
000080 aa 31 c1 be ba 27 2b 3d 61 c9 09 bf bf 71 7e 3e
       -0.37733203 0.041785933 -0.53822905 0.24848078
000090 9b 41 50 3b e8 35 e9 3e 97 be ab be 28 2c f5 3c
       0.0031777385 0.4554894 -0.33543846 0.029928282
0000a0 04 8e be 3e 10 53 ca be d6 31 0d 3e f2 82 28 3d
       0.37217724 -0.39516497 0.13788542 0.041140504
0000b0 d8 87 cb 3c 98 59 49 3e fc 4d 71 3f d9 44 2a 3b
       0.024845049 0.19663084 0.9425962 0.0025980978
0000c0 5c f5 75 3c 06 9c 72 be f5 a7 21 3e 9f 60 a7 3e
       0.0150121115 -0.2369233 0.15786727 0.32690904
0000d0 05 49 10 be e5 98 23 3d 50 15 38 3e 08 5f 4e 3c
       -0.14090355 0.039940733 0.1797688 0.012595899
0000e0 99 e5 00 3f 00 52 48 3e c9 51 88 be ee b5 f5 3e
       0.5035034 0.1956253 -0.26624897 0.47990364
0000f0 01 da 77 be a3 12 62 be 1a 76 bb 3e b6 0c ca 3d
       -0.24204256 -0.22077422 0.36613542 0.09865706

fc2.weight f4 [64, 64]
000000 53 00 42 3e 2e 3c f6 3e 0d a6 f0 3d 26 c7 48 3f
       0.18945436 0.48092788 0.11750422 0.78428876
000010 99 2b 0e bf 18 a0 44 be 1f 9d 5e bd 99 c3 dc be
       -0.55535275 -0.19201696 -0.05434906 -0.4311798
000020 89 d5 35 bf fa 69 27 3f 68 68 3b 3e 50 d1 b7 3e
       -0.71028954 0.6539608 0.18301547 0.3590188
000030 ee e8 27 bf e6 0a 9b 3e 97 01 e6 3d 70 d2 26 3f
       -0.655898 0.30281752 0.11230772 0.6516485
000040 e0 06 a0 be 94 1d 21 be 31 66 37 3f b0 46 67 be
       -0.31255245 -0.1573394 0.71640307 -0.22585559
000050 30 e1 61 be 14 b3 59 bd 40 d4 d1 3d 98 2f 3d 3c
       -0.22058558 -0.053149298 0.102455616 0.011546992
000060 b4 07 1e bf 41 45 e9 3e fb 98 8f bf d8 69 49 be
       -0.61730504 0.4556065 -1.1218561 -0.19669282
000070 13 e3 fb be f2 54 8c be 2b 3f 17 3e 82 d2 31 c0
       -0.4919668 -0.27408558 0.1477019 -2.7784734
000080 91 fe c7 bc 47 56 a0 be bf db 01 bf b2 1f 67 3e
       -0.024413379 -0.31315824 -0.5072593 0.22570685
000090 4a c6 9e 3f da ae 49 3e 30 9d 35 3d f5 56 18 3f
       1.2404263 0.19695607 0.04433936 0.59507686
0000a0 3d 6d d7 3d e4 7d bd 3d 93 1d db 3e 6a 42 95 3e
       0.105188824 0.09252527 0.42796 0.29152232
0000b0 24 1c d6 be fd f0 0e bf 37 f1 5d 3e 7c f4 57 3e
       -0.41818345 -0.5583647 0.21674047 0.21089357
0000c0 8b ac fc bc eb f1 4e be 0a 8f 77 3e 59 56 31 be
       -0.030843994 -0.20209472 0.24175659 -0.17318095
0000d0 64 ca cd 3e 32 41 7d bd 0d 35 25 bf d7 20 16 3e
       0.40193474 -0.061829753 -0.64534074 0.14660965
0000e0 fa 5e ab bc b9 1e c8 be 35 e6 04 3f 62 e7 a9 3e
       -0.020919312 -0.3908594 0.5191377 0.33184344
0000f0 ca 4f 03 bd 9c 8e 6d bf 1e 0d 8c bd 84 3d 38 3f
       -0.032058515 -0.9279573 -0.068384394 0.71968865
000100 6a 74 e4 3c ac 40 90 3e da 6a 1f be 1e bf 54 3f
       0.027887542 0.2817434 -0.15568104 0.8310412
000110 cd a2 01 3d f8 01 06 3f 78 3b 20 bc 4a ed 86 3e
       0.0316494 0.52346754 -0.009779803 0.26352912
000120 fc 12 22 bf 1b f3 96 3e 44 e3 2d 3d 37 20 95 3d
       -0.6331022 0.2948235 0.042453066 0.07281535
000130 8a 9f 39 3d 1d 19 93 3e 2d b5 99 3d 3b 64 ec bd
       0.045318164 0.28730097 0.0750526 -0.11542555
000140 26 93 f1 3e 31 de aa 3d be 16 f9 be 58 b8 30 bc
       0.47182578 0.08343161 -0.48650163 -0.0107861385
000150 ff b7 fd 3e 74 57 8a 3e 4a b5 5d 3f c2 f8 e7 3d
       0.4955444 0.27019846 0.8660475 0.11326744
000160 fd 9f 9f 3e 13 f4 c0 3d a3 5b 0c 3e ca 5c 83 3e
       0.3117675 0.094215535 0.13706832 0.2565673
000170 05 06 df 3e 45 cd c8 3d 42 7f 9c 3b 1d 10 bb be
       0.4355928 0.09804777 0.0047759125 -0.3653573
000180 3b 95 21 3c db f4 b6 bd 3e 78 e9 3e 21 c7 41 bd
       0.0098622395 -0.08933421 0.4559955 -0.047309045
000190 d5 2c 29 3e b0 d2 4f 3d ca 4f af 3d ba 37 47 3e
       0.16521008 0.050738037 0.085601404 0.19454852
0001a0 c4 cb 13 3c 44 8e 19 3e 02 2b 73 3e 5d c3 4b bf
       0.0090207495 0.14995676 0.23746875 -0.79594976
0001b0 63 18 22 be fd d1 13 3f 4c a4 20 bf c2 cc d0 3c
       -0.15829615 0.5774229 -0.627507 0.025488261
0001c0 f5 74 1d 3f bc 1b eb 3e a6 59 53 bf 47 0a 4d be
       0.6150659 0.45919597 -0.8255867 -0.20023452
0001d0 1b 42 02 3f 4f 6a ee 3e e9 9d 62 3e cf c7 03 3f
       0.5088212 0.46565482 0.2213055 0.5147676
0001e0 e6 4f 84 3d b8 77 87 be 18 0c 13 3f 6c 5a 3e 3d
       0.06460552 -0.26458526 0.5744033 0.04647295
0001f0 06 05 05 3d 8d a9 8c 3d 16 6e 2e bf 47 36 d2 3e
       0.032475494 0.06868277 -0.6813673 0.41057035
000200 79 0e aa 3c ab ad 75 bf 4b 73 52 3e cd 05 5f bf
       0.020758854 -0.9596812 0.20551793 -0.87118226
000210 bc 63 3c bf 1e d4 80 bf 8d f3 9d bf 8c 19 a5 be
       -0.7358968 -1.0064733 -1.2339951 -0.32246053
000220 5f c4 26 3f 84 d5 c1 bf 13 7c 35 3f 1c 1c 57 bf
       0.6514339 -1.5143285 0.7089245 -0.84027267
000230 84 13 32 3f 1b 80 a3 be 9d 34 18 3f b2 79 b9 bf
       0.6956103 -0.31933674 0.5945528 -1.4490263
000240 ec 85 45 bf 60 98 28 bf f9 0d d6 3e d9 7a ad 3e
       -0.77157474 -0.65857506 0.41807535 0.33882788
000250 36 c2 4f bf e0 d5 11 be 03 f6 56 bf 42 ac 83 bf
       -0.8115572 -0.14241743 -0.83969134 -1.0286944
000260 87 f5 00 bf 90 26 3a 3e b1 e5 3a bf 67 8d d4 be
       -0.50374645 0.18178773 -0.7300673 -0.4151413
000270 77 a0 22 3f e7 1c 2d 3f 19 66 ff bf 03 6e a7 3f
       0.635261 0.67622226 -1.9953033 1.3080448
000280 cb da 4e bd 90 48 33 3f eb c5 17 3f a4 26 54 be
       -0.050501626 0.70032597 0.59286374 -0.20717865
000290 c7 bc 88 3f bd 8f a6 3e cc f7 ca 3d 69 4e 7c bf
       1.068261 0.3253154 0.09910545 -0.98557144
0002a0 d8 33 e8 bc 0e 6a 3f 3e d2 39 e3 be 43 f9 d3 3e
       -0.028345034 0.186928 -0.4438005 0.4140111
0002b0 d2 b6 9d 3f b0 5f 71 bf ef 83 14 3e 7e be c9 be
       1.2321417 -0.9428663 0.14503454 -0.39403147
0002c0 1d d8 f0 3e a0 46 0f bf 21 b6 10 bf fd 3d 65 3f
       0.4703988 -0.5596714 -0.56527907 0.8954771
0002d0 c5 23 76 bf 8f 82 f0 3e 38 f2 a9 bf 1a 4b 60 bf
       -0.9614833 0.46974608 -1.3277044 -0.87614596
0002e0 cf 75 d6 be 27 c7 e6 3e b7 b7 b3 bf c8 24 23 3f
       -0.41886756 0.45073816 -1.404044 0.63728
0002f0 0a 0c 45 be e0 30 9a bf 29 11 ee 3d 55 6c 5c bf
       -0.19242874 -1.2046165 0.11624367 -0.861028
000300 38 95 2a 3e b1 8e 15 3f a2 ea b8 3e cb 24 4e 3e
       0.16658485 0.58420855 0.3611651 0.20131223
000310 b4 46 03 bc e9 da 9e 3e 70 cc 2b 3f d9 13 9b bd
       -0.008012462 0.3102639 0.6710882 -0.07572145
000320 1b 25 b9 be 69 31 c2 3e a1 9c 3a 3e c6 dc d6 3e
       -0.36161122 0.37928322 0.18223812 0.41965312
000330 dd e7 06 bf ec fe 0b 3f 7b b3 3f bc 97 50 83 3e
       -0.52697545 0.54685855 -0.011700506 0.25647423
000340 03 bd 7b 3e 00 47 e0 3e bb 29 0c be f6 2a ca be
       0.24583821 0.4380417 -0.13687794 -0.39485902
000350 2f 99 f5 3e 02 7d e0 3e 8a 2b 27 3f c8 8d 4d 3e
       0.47968432 0.43845373 0.6530081 0.20073617
000360 ae e5 11 3f 1c 17 b2 3e 48 62 ab 3c e1 10 6c 3e
       0.5699109 0.34783256 0.020920888 0.23053314
000370 9b b7 2b 3f ce 08 e1 be 4f 6f c1 3e c2 4c 75 bf
       0.67077035 -0.4395203 0.37780234 -0.9582025
000380 bb 43 58 3e 1c 92 1a bf f6 d7 fb 3e b1 b8 b0 bb
       0.21119587 -0.60379195 0.49188203 -0.0053931107
000390 95 c1 cc bf 07 dd b5 3c 06 90 fe 3d 06 1c 59 3e
       -1.5996577 0.02220012 0.12429814 0.21202096
0003a0 07 4c 9a 3e 8f 64 55 3e 8b 5d 48 3e 59 d4 10 bf
       0.3013613 0.20839141 0.19566934 -0.56574017
0003b0 0a e7 b3 bf ca 99 a7 bc 54 a3 80 bd 79 6c df 3e
       -1.4054883 -0.020459075 -0.06281152 0.43637446
0003c0 eb 4a 75 bf a5 64 44 3f dd 08 8e bd 6f 52 9f 3d
       -0.9581744 0.7671607 -0.06935284 0.07779395
0003d0 af 5f f1 3e e2 84 c9 be 6a 2a c8 3e d2 28 10 3f
       0.47143313 -0.39359194 0.3909486 0.56312287
0003e0 73 65 93 3e b5 9b c3 bd 23 85 b2 3e 27 67 0c bd
       0.28788337 -0.09551183 0.348672 -0.03427806
0003f0 de 7d 6a 3e ca 3f d5 3d bc 2a 2c bf 46 a6 88 3e
       0.22899577 0.104125574 -0.6725271 0.26689357

fc2.bias f4 [64]
000000 da 42 da 3e 99 92 17 bf fe b3 2b 3c e7 40 6a 3d
       0.4262913 -0.59208065 0.010479925 0.057190802
000010 f9 4d 79 3e f0 ba 44 3a 60 fe 19 bd 18 54 6a 3d
       0.2434615 0.00075046625 -0.037596107 0.057209104
000020 6c 21 00 3e 94 1e 12 be 8f 61 a4 bd 1a 68 12 be
       0.1251275 -0.14269477 -0.0802642 -0.14297524
000030 31 a8 9d be 9f 6f 80 bd e4 e2 9a 3e a6 9e 55 3f
       -0.30792382 -0.0627129 0.3025123 0.83445203
000040 e4 e4 e1 3c 48 c1 80 bd 18 18 92 3e 52 5c ec bd
       0.027574964 -0.062868655 0.28534007 -0.11541046
000050 2a cd 5d 3e 40 5f 4f bd 64 60 85 3e 33 90 65 3d
       0.21660295 -0.050627947 0.26050103 0.056045722
000060 67 57 2f be ae 72 47 3e 60 7d 12 be a6 dd 52 be
       -0.17123185 0.1947734 -0.1430564 -0.20592365
000070 c3 66 9c 3d 2b 78 99 bd 12 20 91 be 2f de 05 3f
       0.07636788 -0.07493623 -0.2834478 0.5229215
000080 75 e9 27 bd a4 eb 03 3f e0 80 59 be 0b 5b f9 bd
       -0.040994126 0.51531434 -0.21240568 -0.12175568
000090 8b 93 ac be 73 a8 02 be b0 98 31 be df d9 a7 3e
       -0.33706316 -0.12759571 -0.17343402 0.3278341
0000a0 bd ec cd bd c4 7a 3e be 6c 68 ec be ba 55 5e bc
       -0.1005492 -0.18601519 -0.46173418 -0.0135702435
0000b0 1b 7a 04 bf cd d5 a2 3d 24 e2 d8 bd 77 18 b4 be
       -0.5174882 0.079509355 -0.10590008 -0.35174915
0000c0 3f 6f e3 bd 3c 28 4a be 2d 9c d1 bc d2 9e 41 be
       -0.11105203 -0.1974191 -0.025587166 -0.18908241
0000d0 08 c0 cf 3e 28 f8 3e bd f9 d1 c1 bd ab e1 a4 be
       0.40576196 -0.04662338 -0.09463877 -0.3220342
0000e0 ec 35 1c 3e ca 93 ef 3b d7 d9 bf 3d 41 18 33 bc
       0.15254945 0.007311319 0.093677215 -0.010931076
0000f0 23 16 26 be 5a 2a f8 be 85 30 19 3e 07 27 37 bd
       -0.16219382 -0.48469812 0.14959915 -0.044714954

fc3.weight f4 [4, 64]
000000 b6 94 89 bd 29 43 d2 be fc a4 1b 40 d1 60 f1 be
       -0.067178175 -0.41066864 2.4319448 -0.47144178
000010 b1 6c 53 bf d6 6a 02 bf 39 ae 32 3d 3a d3 0e bf
       -0.82587725 -0.5094427 0.043623183 -0.55791056
000020 0b 80 d8 3f af 17 72 be 3c 80 06 bf 16 36 93 bd
       1.6914076 -0.23641847 -0.5253942 -0.071880504
000030 91 d9 49 bf dd f1 15 bc d8 af 1c 3f fb b4 b9 3f
       -0.78847605 -0.009151903 0.61205816 1.4508356
000040 10 a1 4a bf 6a 2f a3 be cc 74 49 3f 56 9c a9 be
       -0.7915201 -0.31872112 0.7869384 -0.33127087
000050 2e 3d 29 bf 82 87 87 3d 31 06 67 3d 13 4f d4 be
       -0.6610898 0.06617643 0.05640239 -0.4146658
000060 75 0e c8 be 9b 9d f6 3f 57 a5 93 be 6e ee dc be
       -0.3907353 1.9266847 -0.28837082 -0.43150657
000070 2d 19 c9 be e4 e6 13 bf 9a 2e af be ba a0 bd 3f
       -0.3927702 -0.57774186 -0.34215242 1.4814675
000080 a0 76 5a bf a5 0e 2e bf ef e9 8a be 68 40 dc bd
       -0.8533726 -0.67991096 -0.27131602 -0.10754472
000090 6b 79 0c bf d0 4f 9b be e9 3a 4d be 5c 12 ef 3f
       -0.5487277 -0.3033433 -0.20042004 1.8677478
0000a0 f4 86 c4 be c9 6c 94 be 03 34 9f be 19 4a 1c 40
       -0.3838421 -0.28989246 -0.3109437 2.4420226
0000b0 07 6b 9c be 59 59 3d bd 3a c9 3a 3d 3e ab 03 bf
       -0.30550405 -0.046227787 0.04560206 -0.5143317
0000c0 f8 54 e0 be aa 30 af be 8e de c4 be c1 17 eb be
       -0.43814826 -0.34216815 -0.38451046 -0.4591656
0000d0 4e 15 68 bf 59 54 26 bf 1c 64 c1 be 98 cc 98 be
       -0.9065751 -0.64972454 -0.3777169 -0.29843593
0000e0 04 8f 8a bf c1 0d b7 be f8 cd 4f bf 8f c2 d8 be
       -1.0824895 -0.3575268 -0.8117366 -0.42335936
0000f0 6a c6 00 bf fe fa af be 40 56 8f 3f fa 8f dd be
       -0.50302756 -0.3437118 1.1198196 -0.43273908
000100 d3 b3 05 3e 0e 15 d9 be df eb ff 3f 30 97 d4 be
       0.13056879 -0.42398876 1.9993857 -0.41521597
000110 03 b7 0e bf 86 f1 a7 be 55 2e 4b bc f7 a3 08 bf
       -0.55748004 -0.32801455 -0.012401183 -0.5337519
000120 cf 18 d8 3f 28 d3 ad be 2f 25 21 bf fc 9b 35 bd
       1.6882571 -0.33950162 -0.6294736 -0.04433821
000130 82 a1 2b 3d 9b 70 57 bd 9d eb 50 3f 4c 24 cd 3f
       0.041902073 -0.052597623 0.8160952 1.6026702
000140 8d 9f 64 bf 60 f3 2e bf a5 fb 73 3e 70 db ee be
       -0.89305955 -0.6834011 0.23826464 -0.46651793
000150 6a f1 49 be a7 1e e6 3d fa bc f4 be b7 c4 ac bd
       -0.19720998 0.11236315 -0.47800428 -0.08435958
000160 2f 7d e3 be 5d 6a d9 3f dd ea a6 be f7 b2 ba be
       -0.44431445 1.6985584 -0.3260106 -0.36464664
000170 34 c5 fe be 6a 8a 0a bf e2 b0 ca be c0 f3 97 3f
       -0.4975983 -0.54117453 -0.39588076 1.1871262
000180 cd 74 09 bf 99 b6 7c bf 78 f8 93 be cc 87 ff 3d
       -0.5369385 -0.9871612 -0.28900504 0.12477073
000190 24 98 a5 be 2d a3 14 bf d4 cd 48 3d eb 42 0d 40
       -0.32342637 -0.58061486 0.049024418 2.2072093
0001a0 2b 27 43 bf 95 4c 44 bf dc 45 ec be b5 a4 39 40
       -0.7623164 -0.76679355 -0.46147048 2.900678
0001b0 9d 7a de be cf 4c 96 bc 72 2a 17 3e c5 b2 55 be
       -0.43452922 -0.018347172 0.14762285 -0.20868976
0001c0 c7 52 bc be 70 f4 dd be e7 cc 10 bf 79 c7 3c be
       -0.36781904 -0.43350554 -0.56562656 -0.18435468
0001d0 06 e3 43 bf 13 ce 0f bf d6 69 e0 be 1d 6f f0 be
       -0.76518285 -0.5617382 -0.43830746 -0.46959773
0001e0 af 52 4e bf 60 cb b1 be 6c 89 34 bf 97 41 0a bf
       -0.80594915 -0.34725475 -0.7052219 -0.5400633
0001f0 8b ac 9e be 29 ce af 3d b8 34 86 3f 8c a8 fa be
       -0.30991015 0.08584244 1.0484838 -0.48956716
000200 f6 46 c5 bf 3c 32 3e bf c4 03 e3 3f 9b fd 9a be
       -1.541228 -0.742954 1.7735524 -0.3027161
000210 60 59 b0 be 0c 4c a1 be 3c fc dc 3c a5 85 80 be
       -0.34443188 -0.31503332 0.026975743 -0.25101963
000220 62 22 09 40 26 ae 8e 3f bc 2d 04 bf e7 f8 92 3c
       2.1427236 1.1146896 -0.51632285 0.017940952
000230 cf 65 95 3e ba 7d 9e bd f6 72 a9 3d 3d 66 bf 3f
       0.29179236 -0.07738824 0.0827388 1.4953076
000240 cc 37 c2 be e6 e4 77 bf 43 9f a3 bf d4 b0 df be
       -0.37933195 -0.96833646 -1.2782978 -0.43689597
000250 88 2c 8b be 56 5f a7 3d ae c4 83 bf 76 c2 89 3d
       -0.27182412 0.08172481 -1.0294397 0.067265436
000260 e4 e2 c1 be 75 9a f8 3f 2b 22 fa be a3 f5 dd be
       -0.37868416 1.9422137 -0.48854193 -0.43351468
000270 6c 97 e7 be 6f f4 b5 be e1 da 5e bf cb 4c fe 3f
       -0.45232713 -0.3553805 -0.8705273 1.9867185
000280 96 f4 f9 be 30 bb f9 be 90 b8 3c be 90 32 4f bd
       -0.48819417 -0.48775625 -0.1842978 -0.05058533
000290 c6 8b e0 be 73 75 a2 be 43 1c 1a 3d be 7e d4 3f
       -0.4385664 -0.31730232 0.03762461 1.6601179
0002a0 c9 a1 ef be 1f 1b e6 be 5f b1 e8 be 8a 17 2a 40
       -0.4680312 -0.44942567 -0.45447823 2.6576867
0002b0 d7 09 f2 be 03 ea 0e 3c 19 e2 ed bc 03 9c 27 bf
       -0.47273132 0.008722785 -0.029038476 -0.6547243
0002c0 3a f7 90 be 73 b3 10 bf 5d 7c 04 bf a6 31 34 bf
       -0.2831362 -0.5652382 -0.51752263 -0.7038826
0002d0 f4 2f 50 bf bd 4d 58 bf 2f b3 8d be af ec 87 3f
       -0.8132317 -0.8449362 -0.2767577 1.0619105
0002e0 d7 b3 6b bf 45 7f da be 97 48 05 bf 09 ad 88 be
       -0.9207129 -0.42675224 -0.5206389 -0.26694515
0002f0 e8 84 b7 be a3 71 db be 0b 97 e3 be fb 3c d7 be
       -0.35843587 -0.42860135 -0.44451174 -0.42038712
000300 91 05 06 bf a2 96 63 bf 31 44 36 40 69 81 0e bf
       -0.52352244 -0.8890172 2.847912 -0.55666214
000310 02 22 89 bf 4c 8c e8 be 20 9d 58 3d 33 f3 18 bf
       -1.0713503 -0.45419538 0.05288422 -0.5974609
000320 8b 4f d4 3f 73 ee 1e bf 84 a6 12 bf 85 f0 21 3c
       1.6586775 -0.62082595 -0.5728533 0.0098840045
000330 37 1b 0a bf 7e 1f 9e bd d5 99 89 be 03 7f d9 3f
       -0.53947777 -0.077208504 -0.26875177 1.6991886
000340 6a 3b c0 be fd 10 30 bf 7d 00 7f 3f 70 f6 cf be
       -0.3754533 -0.6877592 0.9961012 -0.40617704
000350 20 73 83 bf 7b 50 8f bd 14 3b 27 be 32 79 09 bf
       -1.0269508 -0.06997772 -0.1633113 -0.53700554
000360 4d 09 a5 be a5 b2 d9 3f db 1c b3 be 92 87 93 be
       -0.32233658 1.7007643 -0.34982952 -0.2881437
000370 85 fb e5 be 6d 0d ec be b1 25 1b bf 67 54 cb 3f
       -0.44918457 -0.46103993 -0.6060439 1.5885133
000380 0a b9 0b bf 47 ae 96 bd df 8b dd be 70 b9 75 bd
       -0.5457922 -0.073574595 -0.43270776 -0.0599913
000390 c2 53 7f be 9b 67 be be 04 66 95 bd 05 c6 ca 3f
       -0.24934295 -0.3718842 -0.072948486 1.5841681
0003a0 f9 eb 81 be 4b 82 76 be de 5e c7 be 38 94 fe 3f
       -0.25375345 -0.2407314 -0.38939565 1.9888983
0003b0 50 93 0c bf 80 ad f3 bd 16 38 7e 3d a7 df ff be
       -0.5491228 -0.11898327 0.062065206 -0.4997532
0003c0 14 ee c0 be d4 8a b9 be 02 67 ab be d9 4a 0d bf
       -0.3768164 -0.3623873 -0.33477026 -0.55192333
0003d0 d2 30 d1 bb 16 3d 0b bf 39 06 be be cb 9d c3 3e
       -0.0063839937 -0.54390085 -0.37114123 0.38206324
0003e0 58 14 9e bf b1 0b dc be 4a 5d 84 bf 6d a0 ec be
       -1.2349958 -0.4297767 -1.034097 -0.46216145
0003f0 1b 56 1b be 2b 68 f5 be 17 4d db 3f fd 97 9f be
       -0.15169565 -0.47931036 1.7132901 -0.31170645

fc3.bias f4 [4]
000000 aa 5f b8 3d 41 a6 a3 bd 02 c7 fa 3e 50 ae b6 3d
       0.090026215 -0.07990695 0.48979956 0.08919966
